#loc = loc("/mnt/disk1/khiemtt/universal-offline-bbo/torchinductor_ubuntu/pb/cpb2akpv43fq2mp5cna45tzor23ja647xkhkuhuy3odems2suvyb.py":18:0)
#loc1 = loc(unknown)
#loc17 = loc("/mnt/disk1/khiemtt/universal-offline-bbo/torchinductor_ubuntu/pb/cpb2akpv43fq2mp5cna45tzor23ja647xkhkuhuy3odems2suvyb.py":42:57)
#loc31 = loc(callsite(#loc1 at #loc17))
module {
  tt.func public @triton_per_fused_add_mean_mul_pow_rsqrt_2(%arg0: !tt.ptr<f32> {tt.divisibility = 16 : i32} loc("/mnt/disk1/khiemtt/universal-offline-bbo/torchinductor_ubuntu/pb/cpb2akpv43fq2mp5cna45tzor23ja647xkhkuhuy3odems2suvyb.py":18:0), %arg1: !tt.ptr<f32> {tt.divisibility = 16 : i32} loc("/mnt/disk1/khiemtt/universal-offline-bbo/torchinductor_ubuntu/pb/cpb2akpv43fq2mp5cna45tzor23ja647xkhkuhuy3odems2suvyb.py":18:0), %arg2: !tt.ptr<f32> {tt.divisibility = 16 : i32} loc("/mnt/disk1/khiemtt/universal-offline-bbo/torchinductor_ubuntu/pb/cpb2akpv43fq2mp5cna45tzor23ja647xkhkuhuy3odems2suvyb.py":18:0), %arg3: !tt.ptr<f32> {tt.divisibility = 16 : i32} loc("/mnt/disk1/khiemtt/universal-offline-bbo/torchinductor_ubuntu/pb/cpb2akpv43fq2mp5cna45tzor23ja647xkhkuhuy3odems2suvyb.py":18:0), %arg4: i32 loc("/mnt/disk1/khiemtt/universal-offline-bbo/torchinductor_ubuntu/pb/cpb2akpv43fq2mp5cna45tzor23ja647xkhkuhuy3odems2suvyb.py":18:0), %arg5: i32 {tt.divisibility = 16 : i32} loc("/mnt/disk1/khiemtt/universal-offline-bbo/torchinductor_ubuntu/pb/cpb2akpv43fq2mp5cna45tzor23ja647xkhkuhuy3odems2suvyb.py":18:0)) attributes {noinline = false} {
    %cst = arith.constant 9.99999997E-7 : f32 loc(#loc1)
    %cst_0 = arith.constant 3.840000e+02 : f32 loc(#loc1)
    %cst_1 = arith.constant 0.000000e+00 : f32 loc(#loc1)
    %c384_i32 = arith.constant 384 : i32 loc(#loc1)
    %cst_2 = arith.constant dense<0.000000e+00> : tensor<512xf32> loc(#loc1)
    %cst_3 = arith.constant dense<384> : tensor<512xi32> loc(#loc1)
    %0 = tt.get_program_id x : i32 loc(#loc2)
    %1 = tt.make_range {end = 512 : i32, start = 0 : i32} : tensor<512xi32> loc(#loc3)
    %2 = arith.cmpi slt, %1, %cst_3 : tensor<512xi32> loc(#loc4)
    %3 = arith.muli %0, %c384_i32 : i32 loc(#loc5)
    %4 = tt.splat %3 : i32 -> tensor<512xi32> loc(#loc29)
    %5 = arith.addi %1, %4 : tensor<512xi32> loc(#loc6)
    %6 = tt.splat %arg0 : !tt.ptr<f32> -> tensor<512x!tt.ptr<f32>> loc(#loc7)
    %7 = tt.addptr %6, %5 : tensor<512x!tt.ptr<f32>>, tensor<512xi32> loc(#loc7)
    %8 = tt.load %7, %2, %cst_2 : tensor<512x!tt.ptr<f32>> loc(#loc8)
    %9 = tt.splat %arg1 : !tt.ptr<f32> -> tensor<512x!tt.ptr<f32>> loc(#loc9)
    %10 = tt.addptr %9, %5 : tensor<512x!tt.ptr<f32>>, tensor<512xi32> loc(#loc9)
    %11 = tt.load %10, %2, %cst_2 : tensor<512x!tt.ptr<f32>> loc(#loc10)
    %12 = tt.splat %arg2 : !tt.ptr<f32> -> tensor<512x!tt.ptr<f32>> loc(#loc11)
    %13 = tt.addptr %12, %1 : tensor<512x!tt.ptr<f32>>, tensor<512xi32> loc(#loc11)
    %14 = tt.load %13, %2, %cst_2 evictionPolicy = evict_last : tensor<512x!tt.ptr<f32>> loc(#loc12)
    %15 = arith.addf %8, %11 : tensor<512xf32> loc(#loc13)
    %16 = arith.mulf %15, %15 : tensor<512xf32> loc(#loc14)
    %17 = arith.select %2, %16, %cst_2 : tensor<512xi1>, tensor<512xf32> loc(#loc15)
    %18 = "tt.reduce"(%17) <{axis = 0 : i32}> ({
    ^bb0(%arg6: f32 loc(callsite(#loc1 at #loc17)), %arg7: f32 loc(callsite(#loc1 at #loc17))):
      %28 = arith.addf %arg6, %arg7 : f32 loc(#loc34)
      tt.reduce.return %28 : f32 loc(#loc30)
    }) : (tensor<512xf32>) -> f32 loc(#loc30)
    %19 = arith.addf %18, %cst_1 : f32 loc(#loc32)
    %20 = arith.divf %19, %cst_0 : f32 loc(#loc21)
    %21 = arith.addf %20, %cst : f32 loc(#loc22)
    %22 = tt.extern_elementwise %21 {libname = "", libpath = "", pure = true, symbol = "__nv_rsqrtf"} : (f32) -> f32 loc(#loc23)
    %23 = tt.splat %22 : f32 -> tensor<512xf32> loc(#loc33)
    %24 = arith.mulf %15, %23 : tensor<512xf32> loc(#loc24)
    %25 = arith.mulf %14, %24 : tensor<512xf32> loc(#loc25)
    %26 = tt.splat %arg3 : !tt.ptr<f32> -> tensor<512x!tt.ptr<f32>> loc(#loc26)
    %27 = tt.addptr %26, %5 : tensor<512x!tt.ptr<f32>>, tensor<512xi32> loc(#loc26)
    tt.store %27, %25, %2 : tensor<512x!tt.ptr<f32>> loc(#loc27)
    tt.return loc(#loc28)
  } loc(#loc)
} loc(#loc)
#loc2 = loc("/mnt/disk1/khiemtt/universal-offline-bbo/torchinductor_ubuntu/pb/cpb2akpv43fq2mp5cna45tzor23ja647xkhkuhuy3odems2suvyb.py":25:28)
#loc3 = loc("/mnt/disk1/khiemtt/universal-offline-bbo/torchinductor_ubuntu/pb/cpb2akpv43fq2mp5cna45tzor23ja647xkhkuhuy3odems2suvyb.py":28:28)
#loc4 = loc("/mnt/disk1/khiemtt/universal-offline-bbo/torchinductor_ubuntu/pb/cpb2akpv43fq2mp5cna45tzor23ja647xkhkuhuy3odems2suvyb.py":30:25)
#loc5 = loc("/mnt/disk1/khiemtt/universal-offline-bbo/torchinductor_ubuntu/pb/cpb2akpv43fq2mp5cna45tzor23ja647xkhkuhuy3odems2suvyb.py":35:41)
#loc6 = loc("/mnt/disk1/khiemtt/universal-offline-bbo/torchinductor_ubuntu/pb/cpb2akpv43fq2mp5cna45tzor23ja647xkhkuhuy3odems2suvyb.py":35:37)
#loc7 = loc("/mnt/disk1/khiemtt/universal-offline-bbo/torchinductor_ubuntu/pb/cpb2akpv43fq2mp5cna45tzor23ja647xkhkuhuy3odems2suvyb.py":35:30)
#loc8 = loc("/mnt/disk1/khiemtt/universal-offline-bbo/torchinductor_ubuntu/pb/cpb2akpv43fq2mp5cna45tzor23ja647xkhkuhuy3odems2suvyb.py":35:46)
#loc9 = loc("/mnt/disk1/khiemtt/universal-offline-bbo/torchinductor_ubuntu/pb/cpb2akpv43fq2mp5cna45tzor23ja647xkhkuhuy3odems2suvyb.py":36:30)
#loc10 = loc("/mnt/disk1/khiemtt/universal-offline-bbo/torchinductor_ubuntu/pb/cpb2akpv43fq2mp5cna45tzor23ja647xkhkuhuy3odems2suvyb.py":36:46)
#loc11 = loc("/mnt/disk1/khiemtt/universal-offline-bbo/torchinductor_ubuntu/pb/cpb2akpv43fq2mp5cna45tzor23ja647xkhkuhuy3odems2suvyb.py":37:30)
#loc12 = loc("/mnt/disk1/khiemtt/universal-offline-bbo/torchinductor_ubuntu/pb/cpb2akpv43fq2mp5cna45tzor23ja647xkhkuhuy3odems2suvyb.py":37:37)
#loc13 = loc("/mnt/disk1/khiemtt/universal-offline-bbo/torchinductor_ubuntu/pb/cpb2akpv43fq2mp5cna45tzor23ja647xkhkuhuy3odems2suvyb.py":38:18)
#loc14 = loc("/mnt/disk1/khiemtt/universal-offline-bbo/torchinductor_ubuntu/pb/cpb2akpv43fq2mp5cna45tzor23ja647xkhkuhuy3odems2suvyb.py":39:18)
#loc15 = loc("/mnt/disk1/khiemtt/universal-offline-bbo/torchinductor_ubuntu/pb/cpb2akpv43fq2mp5cna45tzor23ja647xkhkuhuy3odems2suvyb.py":41:35)
#loc16 = loc("/mnt/disk1/anaconda3/envs/pqhung/lib/python3.9/site-packages/triton/language/standard.py":290:36)
#loc18 = loc("/mnt/disk1/anaconda3/envs/pqhung/lib/python3.9/site-packages/triton/language/standard.py":260:15)
#loc19 = loc("/mnt/disk1/anaconda3/envs/pqhung/lib/python3.9/site-packages/torch/_inductor/runtime/triton_helpers.py":66:15)
#loc20 = loc("/mnt/disk1/khiemtt/universal-offline-bbo/torchinductor_ubuntu/pb/cpb2akpv43fq2mp5cna45tzor23ja647xkhkuhuy3odems2suvyb.py":42:44)
#loc21 = loc("/mnt/disk1/khiemtt/universal-offline-bbo/torchinductor_ubuntu/pb/cpb2akpv43fq2mp5cna45tzor23ja647xkhkuhuy3odems2suvyb.py":44:20)
#loc22 = loc("/mnt/disk1/khiemtt/universal-offline-bbo/torchinductor_ubuntu/pb/cpb2akpv43fq2mp5cna45tzor23ja647xkhkuhuy3odems2suvyb.py":46:20)
#loc23 = loc("/mnt/disk1/khiemtt/universal-offline-bbo/torchinductor_ubuntu/pb/cpb2akpv43fq2mp5cna45tzor23ja647xkhkuhuy3odems2suvyb.py":47:28)
#loc24 = loc("/mnt/disk1/khiemtt/universal-offline-bbo/torchinductor_ubuntu/pb/cpb2akpv43fq2mp5cna45tzor23ja647xkhkuhuy3odems2suvyb.py":48:19)
#loc25 = loc("/mnt/disk1/khiemtt/universal-offline-bbo/torchinductor_ubuntu/pb/cpb2akpv43fq2mp5cna45tzor23ja647xkhkuhuy3odems2suvyb.py":49:19)
#loc26 = loc("/mnt/disk1/khiemtt/universal-offline-bbo/torchinductor_ubuntu/pb/cpb2akpv43fq2mp5cna45tzor23ja647xkhkuhuy3odems2suvyb.py":50:25)
#loc27 = loc("/mnt/disk1/khiemtt/universal-offline-bbo/torchinductor_ubuntu/pb/cpb2akpv43fq2mp5cna45tzor23ja647xkhkuhuy3odems2suvyb.py":50:48)
#loc28 = loc("/mnt/disk1/khiemtt/universal-offline-bbo/torchinductor_ubuntu/pb/cpb2akpv43fq2mp5cna45tzor23ja647xkhkuhuy3odems2suvyb.py":50:4)
#loc29 = loc(fused[#loc6, #loc5])
#loc30 = loc(callsite(#loc16 at #loc17))
#loc32 = loc(callsite(#loc19 at #loc20))
#loc33 = loc(fused[#loc24, #loc23])
#loc34 = loc(callsite(#loc18 at #loc30))
