#loc = loc("/mnt/disk1/khiemtt/universal-offline-bbo/torchinductor_ubuntu/ci/ccisb2yra76ab2haychl3vkjloggui7jornx4qodogdjo7v6y64e.py":18:0)
#loc145 = loc("/mnt/disk1/anaconda3/envs/pqhung/lib/python3.9/site-packages/torch/_inductor/runtime/triton_helpers.py":102:0)
#loc151 = loc(unknown)
#loc155 = loc("/mnt/disk1/anaconda3/envs/pqhung/lib/python3.9/site-packages/torch/_inductor/runtime/triton_helpers.py":87:0)
#loc159 = loc("/mnt/disk1/anaconda3/envs/pqhung/lib/python3.9/site-packages/torch/_inductor/runtime/triton_helpers.py":64:0)
#loc164 = loc("/mnt/disk1/anaconda3/envs/pqhung/lib/python3.9/site-packages/torch/_inductor/runtime/triton_helpers.py":187:0)
#loc178 = loc("/mnt/disk1/anaconda3/envs/pqhung/lib/python3.9/site-packages/torch/_inductor/runtime/triton_helpers.py":110:0)
#loc187 = loc("/mnt/disk1/anaconda3/envs/pqhung/lib/python3.9/site-packages/torch/_inductor/runtime/triton_helpers.py":170:0)
#loc191 = loc("/mnt/disk1/anaconda3/envs/pqhung/lib/python3.9/site-packages/torch/_inductor/runtime/triton_helpers.py":265:0)
#loc195 = loc("/mnt/disk1/anaconda3/envs/pqhung/lib/python3.9/site-packages/torch/_inductor/runtime/triton_helpers.py":260:0)
#loc199 = loc("/mnt/disk1/anaconda3/envs/pqhung/lib/python3.9/site-packages/torch/_inductor/runtime/triton_helpers.py":178:0)
#loc210 = loc("/mnt/disk1/anaconda3/envs/pqhung/lib/python3.9/site-packages/torch/_inductor/runtime/triton_helpers.py":123:0)
#loc214 = loc("/mnt/disk1/anaconda3/envs/pqhung/lib/python3.9/site-packages/triton/language/standard.py":284:0)
#loc218 = loc("/mnt/disk1/anaconda3/envs/pqhung/lib/python3.9/site-packages/triton/language/standard.py":259:0)
module {
  tt.func public @triton_red_fused__to_copy_add_mul_rsub_4(%arg0: !tt.ptr<f32> {tt.divisibility = 16 : i32} loc("/mnt/disk1/khiemtt/universal-offline-bbo/torchinductor_ubuntu/ci/ccisb2yra76ab2haychl3vkjloggui7jornx4qodogdjo7v6y64e.py":18:0), %arg1: !tt.ptr<i64> {tt.divisibility = 16 : i32} loc("/mnt/disk1/khiemtt/universal-offline-bbo/torchinductor_ubuntu/ci/ccisb2yra76ab2haychl3vkjloggui7jornx4qodogdjo7v6y64e.py":18:0), %arg2: !tt.ptr<f32> {tt.divisibility = 16 : i32} loc("/mnt/disk1/khiemtt/universal-offline-bbo/torchinductor_ubuntu/ci/ccisb2yra76ab2haychl3vkjloggui7jornx4qodogdjo7v6y64e.py":18:0), %arg3: !tt.ptr<f32> {tt.divisibility = 16 : i32} loc("/mnt/disk1/khiemtt/universal-offline-bbo/torchinductor_ubuntu/ci/ccisb2yra76ab2haychl3vkjloggui7jornx4qodogdjo7v6y64e.py":18:0), %arg4: !tt.ptr<f32> {tt.divisibility = 16 : i32} loc("/mnt/disk1/khiemtt/universal-offline-bbo/torchinductor_ubuntu/ci/ccisb2yra76ab2haychl3vkjloggui7jornx4qodogdjo7v6y64e.py":18:0), %arg5: i32 {tt.divisibility = 16 : i32} loc("/mnt/disk1/khiemtt/universal-offline-bbo/torchinductor_ubuntu/ci/ccisb2yra76ab2haychl3vkjloggui7jornx4qodogdjo7v6y64e.py":18:0), %arg6: i32 loc("/mnt/disk1/khiemtt/universal-offline-bbo/torchinductor_ubuntu/ci/ccisb2yra76ab2haychl3vkjloggui7jornx4qodogdjo7v6y64e.py":18:0)) attributes {noinline = false} {
    %c10368_i32 = arith.constant 10368 : i32 loc(#loc1)
    %c324_i32 = arith.constant 324 : i32 loc(#loc2)
    %0 = tt.get_program_id x : i32 loc(#loc3)
    %c1_i32 = arith.constant 1 : i32 loc(#loc4)
    %c1_i32_0 = arith.constant 1 : i32 loc(#loc4)
    %1 = arith.muli %0, %c1_i32_0 : i32 loc(#loc4)
    %2 = tt.make_range {end = 1 : i32, start = 0 : i32} : tensor<1xi32> loc(#loc5)
    %3 = tt.expand_dims %2 {axis = 1 : i32} : tensor<1xi32> -> tensor<1x1xi32> loc(#loc6)
    %4 = tt.splat %1 : i32 -> tensor<1x1xi32> loc(#loc7)
    %5 = arith.addi %4, %3 : tensor<1x1xi32> loc(#loc7)
    %cst = arith.constant dense<10368> : tensor<1x1xi32> loc(#loc8)
    %6 = arith.cmpi slt, %5, %cst : tensor<1x1xi32> loc(#loc8)
    %7 = tt.make_range {end = 256 : i32, start = 0 : i32} : tensor<256xi32> loc(#loc9)
    %8 = tt.expand_dims %7 {axis = 0 : i32} : tensor<256xi32> -> tensor<1x256xi32> loc(#loc10)
    %c324_i32_1 = arith.constant 324 : i32 loc(#loc11)
    %c324_i32_2 = arith.constant 324 : i32 loc(#loc11)
    %cst_3 = arith.constant dense<324> : tensor<1x1xi32> loc(#loc11)
    %9 = arith.remsi %5, %cst_3 : tensor<1x1xi32> loc(#loc11)
    %c324_i32_4 = arith.constant 324 : i32 loc(#loc12)
    %c324_i32_5 = arith.constant 324 : i32 loc(#loc12)
    %cst_6 = arith.constant dense<324> : tensor<1x1xi32> loc(#loc12)
    %10 = arith.divsi %5, %cst_6 : tensor<1x1xi32> loc(#loc12)
    %c8_i32 = arith.constant 8 : i32 loc(#loc13)
    %c8_i32_7 = arith.constant 8 : i32 loc(#loc13)
    %cst_8 = arith.constant dense<8> : tensor<1x1xi32> loc(#loc13)
    %11 = arith.remsi %10, %cst_8 : tensor<1x1xi32> loc(#loc13)
    %c2592_i32 = arith.constant 2592 : i32 loc(#loc14)
    %c2592_i32_9 = arith.constant 2592 : i32 loc(#loc14)
    %cst_10 = arith.constant dense<2592> : tensor<1x1xi32> loc(#loc14)
    %12 = arith.divsi %5, %cst_10 : tensor<1x1xi32> loc(#loc14)
    %c324_i32_11 = arith.constant 324 : i32 loc(#loc15)
    %c324_i32_12 = arith.constant 324 : i32 loc(#loc15)
    %cst_13 = arith.constant dense<324> : tensor<1x1xi32> loc(#loc15)
    %13 = arith.divsi %5, %cst_13 : tensor<1x1xi32> loc(#loc15)
    %false = arith.constant false loc(#loc16)
    %cst_14 = arith.constant dense<false> : tensor<1x256xi1> loc(#loc16)
    %c2592_i32_15 = arith.constant 2592 : i32 loc(#loc17)
    %c2592_i32_16 = arith.constant 2592 : i32 loc(#loc17)
    %cst_17 = arith.constant dense<2592> : tensor<1x1xi32> loc(#loc17)
    %14 = arith.remsi %5, %cst_17 : tensor<1x1xi32> loc(#loc17)
    %cst_18 = arith.constant 0xFF800000 : f32 loc(#loc18)
    %cst_19 = arith.constant dense<0xFF800000> : tensor<1x256xf32> loc(#loc18)
    %15 = tt.call @"triton.language.standard.zeros____(0, 0)cconstexpr_1__(0, 1)cconstexpr_256__(1,)cconstexpr_fp32_"() : () -> tensor<1x256xf32> loc(#loc19)
    %c0_i32 = arith.constant 0 : i32 loc(#loc20)
    %c256_i32 = arith.constant 256 : i32 loc(#loc20)
    %16 = arith.bitcast %c0_i32 : i32 to i32 loc(#loc20)
    %17 = arith.bitcast %c324_i32 : i32 to i32 loc(#loc20)
    %18 = arith.bitcast %c256_i32 : i32 to i32 loc(#loc20)
    %19 = ub.poison : i32 loc(#loc20)
    %20:3 = scf.for %arg7 = %16 to %17 step %18 iter_args(%arg8 = %cst_14, %arg9 = %cst_19, %arg10 = %15) -> (tensor<1x256xi1>, tensor<1x256xf32>, tensor<1x256xf32>)  : i32 {
      %32 = tt.splat %arg7 : i32 -> tensor<1x256xi32> loc(#loc21)
      %33 = arith.addi %32, %8 : tensor<1x256xi32> loc(#loc21)
      %cst_23 = arith.constant dense<324> : tensor<1x256xi32> loc(#loc22)
      %34 = arith.cmpi slt, %33, %cst_23 : tensor<1x256xi32> loc(#loc22)
      %c324_i32_24 = arith.constant 324 : i32 loc(#loc23)
      %c324_i32_25 = arith.constant 324 : i32 loc(#loc23)
      %cst_26 = arith.constant dense<324> : tensor<1x1xi32> loc(#loc23)
      %35 = arith.muli %cst_26, %12 : tensor<1x1xi32> loc(#loc23)
      %36 = tt.broadcast %35 : tensor<1x1xi32> -> tensor<1x256xi32> loc(#loc24)
      %37 = arith.addi %33, %36 : tensor<1x256xi32> loc(#loc24)
      %38 = tt.splat %arg1 : !tt.ptr<i64> -> tensor<1x256x!tt.ptr<i64>> loc(#loc25)
      %39 = tt.addptr %38, %37 : tensor<1x256x!tt.ptr<i64>>, tensor<1x256xi32> loc(#loc25)
      %40 = tt.broadcast %6 : tensor<1x1xi1> -> tensor<1x256xi1> loc(#loc26)
      %41 = arith.andi %34, %40 : tensor<1x256xi1> loc(#loc26)
      %cst_27 = arith.constant 0.000000e+00 : f32 loc(#loc27)
      %cst_28 = arith.constant dense<0.000000e+00> : tensor<1x256xf32> loc(#loc27)
      %42 = arith.fptosi %cst_28 : tensor<1x256xf32> to tensor<1x256xi64> loc(#loc27)
      %43 = tt.load %39, %41, %42 evictionPolicy = evict_last : tensor<1x256x!tt.ptr<i64>> loc(#loc27)
      %c324_i32_29 = arith.constant 324 : i32 loc(#loc28)
      %c324_i32_30 = arith.constant 324 : i32 loc(#loc28)
      %cst_31 = arith.constant dense<324> : tensor<1x1xi32> loc(#loc28)
      %44 = arith.muli %cst_31, %5 : tensor<1x1xi32> loc(#loc28)
      %45 = tt.broadcast %44 : tensor<1x1xi32> -> tensor<1x256xi32> loc(#loc29)
      %46 = arith.addi %33, %45 : tensor<1x256xi32> loc(#loc29)
      %47 = tt.splat %arg2 : !tt.ptr<f32> -> tensor<1x256x!tt.ptr<f32>> loc(#loc30)
      %48 = tt.addptr %47, %46 : tensor<1x256x!tt.ptr<f32>>, tensor<1x256xi32> loc(#loc30)
      %49 = tt.broadcast %6 : tensor<1x1xi1> -> tensor<1x256xi1> loc(#loc31)
      %50 = arith.andi %34, %49 : tensor<1x256xi1> loc(#loc31)
      %cst_32 = arith.constant 0.000000e+00 : f32 loc(#loc32)
      %cst_33 = arith.constant dense<0.000000e+00> : tensor<1x256xf32> loc(#loc32)
      %51 = tt.load %48, %50, %cst_33 evictionPolicy = evict_last : tensor<1x256x!tt.ptr<f32>> loc(#loc32)
      %c-1_i32 = arith.constant -1 : i32 loc(#loc33)
      %c-1_i32_34 = arith.constant -1 : i32 loc(#loc33)
      %cst_35 = arith.constant dense<-1> : tensor<1x1xi32> loc(#loc33)
      %52 = arith.muli %cst_35, %9 : tensor<1x1xi32> loc(#loc33)
      %53 = tt.broadcast %52 : tensor<1x1xi32> -> tensor<1x256xi32> loc(#loc34)
      %54 = arith.addi %33, %53 : tensor<1x256xi32> loc(#loc34)
      %c0_i64 = arith.constant 0 : i64 loc(#loc35)
      %cst_36 = arith.constant dense<0> : tensor<1x1xi64> loc(#loc35)
      %55 = arith.extsi %54 : tensor<1x256xi32> to tensor<1x256xi64> loc(#loc36)
      %cst_37 = arith.constant dense<0> : tensor<1x256xi64> loc(#loc36)
      %56 = arith.cmpi sgt, %55, %cst_37 : tensor<1x256xi64> loc(#loc36)
      %57 = arith.extui %56 : tensor<1x256xi1> to tensor<1x256xi64> loc(#loc37)
      %c16_i64 = arith.constant 16 : i64 loc(#loc38)
      %cst_38 = arith.constant dense<16> : tensor<1x1xi64> loc(#loc38)
      %cst_39 = arith.constant dense<16> : tensor<1x256xi64> loc(#loc39)
      %58 = arith.muli %57, %cst_39 : tensor<1x256xi64> loc(#loc39)
      %cst_40 = arith.constant dense<0> : tensor<1x256xi64> loc(#loc40)
      %59 = arith.addi %58, %cst_40 : tensor<1x256xi64> loc(#loc40)
      %c-1_i32_41 = arith.constant -1 : i32 loc(#loc41)
      %c-1_i32_42 = arith.constant -1 : i32 loc(#loc41)
      %cst_43 = arith.constant dense<-1> : tensor<1x1xi32> loc(#loc41)
      %60 = arith.muli %cst_43, %9 : tensor<1x1xi32> loc(#loc41)
      %61 = tt.broadcast %60 : tensor<1x1xi32> -> tensor<1x256xi32> loc(#loc42)
      %62 = arith.addi %33, %61 : tensor<1x256xi32> loc(#loc42)
      %63 = math.absi %62 : tensor<1x256xi32> loc(#loc43)
      %c8_i64 = arith.constant 8 : i64 loc(#loc44)
      %cst_44 = arith.constant dense<8> : tensor<1x1xi64> loc(#loc44)
      %64 = arith.extsi %63 : tensor<1x256xi32> to tensor<1x256xi64> loc(#loc45)
      %cst_45 = arith.constant dense<8> : tensor<1x256xi64> loc(#loc45)
      %65 = arith.cmpi slt, %64, %cst_45 : tensor<1x256xi64> loc(#loc45)
      %66 = arith.sitofp %63 : tensor<1x256xi32> to tensor<1x256xf32> loc(#loc46)
      %cst_46 = arith.constant 1.250000e-01 : f32 loc(#loc47)
      %cst_47 = arith.constant dense<1.250000e-01> : tensor<1x256xf32> loc(#loc48)
      %67 = arith.mulf %66, %cst_47 : tensor<1x256xf32> loc(#loc48)
      %68 = math.log %67 : tensor<1x256xf32> loc(#loc49)
      %cst_48 = arith.constant 0.360673755 : f32 loc(#loc50)
      %cst_49 = arith.constant dense<0.360673755> : tensor<1x256xf32> loc(#loc51)
      %69 = arith.mulf %68, %cst_49 : tensor<1x256xf32> loc(#loc51)
      %cst_50 = arith.constant 8.000000e+00 : f32 loc(#loc52)
      %cst_51 = arith.constant dense<8.000000e+00> : tensor<1x256xf32> loc(#loc53)
      %70 = arith.mulf %69, %cst_51 : tensor<1x256xf32> loc(#loc53)
      %71 = arith.fptosi %70 : tensor<1x256xf32> to tensor<1x256xi64> loc(#loc54)
      %cst_52 = arith.constant dense<8> : tensor<1x256xi64> loc(#loc55)
      %72 = arith.addi %71, %cst_52 : tensor<1x256xi64> loc(#loc55)
      %c15_i64 = arith.constant 15 : i64 loc(#loc56)
      %cst_53 = arith.constant dense<15> : tensor<1x1xi64> loc(#loc56)
      %73 = tt.call @torch._inductor.runtime.triton_helpers.minimum__i64S1_256S_i64S1_1S__(%72, %cst_53) : (tensor<1x256xi64>, tensor<1x1xi64>) -> tensor<1x256xi64> loc(#loc57)
      %74 = arith.extsi %63 : tensor<1x256xi32> to tensor<1x256xi64> loc(#loc58)
      %75 = arith.select %65, %74, %73 : tensor<1x256xi1>, tensor<1x256xi64> loc(#loc58)
      %76 = arith.addi %59, %75 : tensor<1x256xi64> loc(#loc59)
      %c32_i32 = arith.constant 32 : i32 loc(#loc60)
      %cst_54 = arith.constant dense<32> : tensor<1x256xi32> loc(#loc60)
      %77 = arith.extsi %cst_54 : tensor<1x256xi32> to tensor<1x256xi64> loc(#loc61)
      %78 = arith.addi %76, %77 : tensor<1x256xi64> loc(#loc61)
      %c0_i32_55 = arith.constant 0 : i32 loc(#loc62)
      %79 = arith.extsi %c0_i32_55 : i32 to i64 loc(#loc62)
      %80 = tt.splat %79 : i64 -> tensor<1x256xi64> loc(#loc62)
      %81 = arith.cmpi slt, %76, %80 : tensor<1x256xi64> loc(#loc62)
      %82 = arith.select %81, %78, %76 : tensor<1x256xi1>, tensor<1x256xi64> loc(#loc63)
      %c0_i32_56 = arith.constant 0 : i32 loc(#loc64)
      %83 = arith.extsi %c0_i32_56 : i32 to i64 loc(#loc64)
      %84 = tt.splat %83 : i64 -> tensor<1x256xi64> loc(#loc64)
      %85 = arith.cmpi sle, %84, %82 : tensor<1x256xi64> loc(#loc64)
      %c32_i32_57 = arith.constant 32 : i32 loc(#loc65)
      %86 = arith.extsi %c32_i32_57 : i32 to i64 loc(#loc65)
      %87 = tt.splat %86 : i64 -> tensor<1x256xi64> loc(#loc65)
      %88 = arith.cmpi slt, %82, %87 : tensor<1x256xi64> loc(#loc65)
      %89 = arith.andi %85, %88 : tensor<1x256xi1> loc(#loc66)
      %90 = tt.broadcast %6 : tensor<1x1xi1> -> tensor<1x256xi1> loc(#loc67)
      %91 = arith.andi %34, %90 : tensor<1x256xi1> loc(#loc67)
      %true = arith.constant true loc(#loc68)
      %cst_58 = arith.constant dense<true> : tensor<1x256xi1> loc(#loc68)
      %92 = arith.xori %91, %cst_58 : tensor<1x256xi1> loc(#loc68)
      %93 = arith.ori %89, %92 : tensor<1x256xi1> loc(#loc69)
      tt.assert %93, "index out of bounds: 0 <= tmp27 < 32" : tensor<1x256xi1> loc(#loc70)
      %c8_i32_59 = arith.constant 8 : i32 loc(#loc71)
      %c8_i64_60 = arith.constant 8 : i64 loc(#loc71)
      %cst_61 = arith.constant dense<8> : tensor<1x256xi64> loc(#loc71)
      %94 = arith.muli %cst_61, %82 : tensor<1x256xi64> loc(#loc71)
      %95 = arith.extsi %11 : tensor<1x1xi32> to tensor<1x1xi64> loc(#loc72)
      %96 = tt.broadcast %95 : tensor<1x1xi64> -> tensor<1x256xi64> loc(#loc72)
      %97 = arith.addi %96, %94 : tensor<1x256xi64> loc(#loc72)
      %98 = tt.splat %arg0 : !tt.ptr<f32> -> tensor<1x256x!tt.ptr<f32>> loc(#loc73)
      %99 = tt.addptr %98, %97 : tensor<1x256x!tt.ptr<f32>>, tensor<1x256xi64> loc(#loc73)
      %100 = tt.broadcast %6 : tensor<1x1xi1> -> tensor<1x256xi1> loc(#loc74)
      %101 = arith.andi %34, %100 : tensor<1x256xi1> loc(#loc74)
      %102 = tt.load %99, %101 evictionPolicy = evict_last : tensor<1x256x!tt.ptr<f32>> loc(#loc75)
      %103 = arith.sitofp %43 : tensor<1x256xi64> to tensor<1x256xf32> loc(#loc76)
      %cst_62 = arith.constant 1.000000e+00 : f32 loc(#loc77)
      %cst_63 = arith.constant dense<1.000000e+00> : tensor<1x256xf32> loc(#loc78)
      %104 = arith.subf %cst_63, %103 : tensor<1x256xf32> loc(#loc78)
      %cst_64 = arith.constant -3.40282347E+38 : f32 loc(#loc79)
      %cst_65 = arith.constant dense<-3.40282347E+38> : tensor<1x256xf32> loc(#loc80)
      %105 = arith.mulf %104, %cst_65 : tensor<1x256xf32> loc(#loc80)
      %106 = arith.addf %102, %105 : tensor<1x256xf32> loc(#loc81)
      %107 = arith.addf %51, %106 : tensor<1x256xf32> loc(#loc82)
      %cst_66 = arith.constant 0xFF800000 : f32 loc(#loc83)
      %cst_67 = arith.constant dense<0xFF800000> : tensor<1x256xf32> loc(#loc84)
      %108 = arith.cmpf oeq, %107, %cst_67 : tensor<1x256xf32> loc(#loc84)
      %c0_i32_68 = arith.constant 0 : i32 loc(#loc85)
      %109 = arith.extui %108 : tensor<1x256xi1> to tensor<1x256xi32> loc(#loc85)
      %cst_69 = arith.constant dense<0> : tensor<1x256xi32> loc(#loc85)
      %110 = arith.cmpi eq, %109, %cst_69 : tensor<1x256xi32> loc(#loc85)
      %111 = arith.extui %110 : tensor<1x256xi1> to tensor<1x256xi64> loc(#loc86)
      %c0_i32_70 = arith.constant 0 : i32 loc(#loc87)
      %112 = arith.extsi %c0_i32_70 : i32 to i64 loc(#loc87)
      %113 = tt.splat %112 : i64 -> tensor<1x256xi64> loc(#loc87)
      %114 = arith.cmpi ne, %111, %113 : tensor<1x256xi64> loc(#loc87)
      %115 = arith.ori %arg8, %114 : tensor<1x256xi1> loc(#loc88)
      %116 = tt.broadcast %6 : tensor<1x1xi1> -> tensor<1x256xi1> loc(#loc89)
      %117 = arith.andi %34, %116 : tensor<1x256xi1> loc(#loc89)
      %118 = arith.select %117, %115, %arg8 : tensor<1x256xi1>, tensor<1x256xi1> loc(#loc90)
      %119:2 = tt.call @"torch._inductor.runtime.triton_helpers.online_softmax_combine__fp32S1_256S_fp32S1_256S_fp32S1_256S__(3,)cconstexpr_False_"(%arg9, %arg10, %107) : (tensor<1x256xf32>, tensor<1x256xf32>, tensor<1x256xf32>) -> (tensor<1x256xf32>, tensor<1x256xf32>) loc(#loc91)
      %120 = tt.broadcast %6 : tensor<1x1xi1> -> tensor<1x256xi1> loc(#loc92)
      %121 = arith.andi %34, %120 : tensor<1x256xi1> loc(#loc92)
      %122 = arith.select %121, %119#0, %arg9 : tensor<1x256xi1>, tensor<1x256xf32> loc(#loc93)
      %123 = tt.broadcast %6 : tensor<1x1xi1> -> tensor<1x256xi1> loc(#loc94)
      %124 = arith.andi %34, %123 : tensor<1x256xi1> loc(#loc94)
      %125 = arith.select %124, %119#1, %arg10 : tensor<1x256xi1>, tensor<1x256xf32> loc(#loc95)
      %c324_i32_71 = arith.constant 324 : i32 loc(#loc96)
      %c324_i32_72 = arith.constant 324 : i32 loc(#loc96)
      %cst_73 = arith.constant dense<324> : tensor<1x1xi32> loc(#loc96)
      %126 = arith.muli %cst_73, %9 : tensor<1x1xi32> loc(#loc96)
      %127 = tt.broadcast %126 : tensor<1x1xi32> -> tensor<1x256xi32> loc(#loc97)
      %128 = arith.addi %33, %127 : tensor<1x256xi32> loc(#loc97)
      %c104992_i32 = arith.constant 104992 : i32 loc(#loc98)
      %c104992_i32_74 = arith.constant 104992 : i32 loc(#loc98)
      %cst_75 = arith.constant dense<104992> : tensor<1x1xi32> loc(#loc98)
      %129 = arith.muli %cst_75, %13 : tensor<1x1xi32> loc(#loc98)
      %130 = tt.broadcast %129 : tensor<1x1xi32> -> tensor<1x256xi32> loc(#loc99)
      %131 = arith.addi %128, %130 : tensor<1x256xi32> loc(#loc99)
      %132 = tt.splat %arg3 : !tt.ptr<f32> -> tensor<1x256x!tt.ptr<f32>> loc(#loc100)
      %133 = tt.addptr %132, %131 : tensor<1x256x!tt.ptr<f32>>, tensor<1x256xi32> loc(#loc100)
      %134 = tt.broadcast %6 : tensor<1x1xi1> -> tensor<1x256xi1> loc(#loc101)
      %135 = arith.andi %34, %134 : tensor<1x256xi1> loc(#loc101)
      tt.store %133, %106, %135 : tensor<1x256x!tt.ptr<f32>> loc(#loc102)
      scf.yield %118, %122, %125 : tensor<1x256xi1>, tensor<1x256xf32>, tensor<1x256xf32> loc(#loc103)
    } loc(#loc20)
    %21 = arith.extui %20#0 : tensor<1x256xi1> to tensor<1x256xi8> loc(#loc104)
    %22 = tt.call @"torch._inductor.runtime.triton_helpers.any__i8S1_256S__(1,)cconstexpr_1_"(%21) : (tensor<1x256xi8>) -> tensor<1xi8> loc(#loc105)
    %23 = tt.expand_dims %22 {axis = 1 : i32} : tensor<1xi8> -> tensor<1x1xi8> loc(#loc106)
    %c0_i8 = arith.constant 0 : i8 loc(#loc107)
    %cst_20 = arith.constant dense<0> : tensor<1x1xi8> loc(#loc107)
    %24 = arith.cmpi ne, %23, %cst_20 : tensor<1x1xi8> loc(#loc107)
    %25:2 = tt.call @"torch._inductor.runtime.triton_helpers.online_softmax_reduce__fp32S1_256S_fp32S1_256S__(2,)cconstexpr_1__(3,)cconstexpr_False_"(%20#1, %20#2) : (tensor<1x256xf32>, tensor<1x256xf32>) -> (tensor<1xf32>, tensor<1xf32>) loc(#loc108)
    %26 = tt.expand_dims %25#0 {axis = 1 : i32} : tensor<1xf32> -> tensor<1x1xf32> loc(#loc109)
    %27 = tt.expand_dims %25#1 {axis = 1 : i32} : tensor<1xf32> -> tensor<1x1xf32> loc(#loc110)
    %c0_i32_21 = arith.constant 0 : i32 loc(#loc111)
    %c256_i32_22 = arith.constant 256 : i32 loc(#loc111)
    %28 = arith.bitcast %c0_i32_21 : i32 to i32 loc(#loc111)
    %29 = arith.bitcast %c324_i32 : i32 to i32 loc(#loc111)
    %30 = arith.bitcast %c256_i32_22 : i32 to i32 loc(#loc111)
    %31 = ub.poison : i32 loc(#loc111)
    scf.for %arg7 = %28 to %29 step %30  : i32 {
      %32 = tt.splat %arg7 : i32 -> tensor<1x256xi32> loc(#loc112)
      %33 = arith.addi %32, %8 : tensor<1x256xi32> loc(#loc112)
      %cst_23 = arith.constant dense<324> : tensor<1x256xi32> loc(#loc113)
      %34 = arith.cmpi slt, %33, %cst_23 : tensor<1x256xi32> loc(#loc113)
      %c324_i32_24 = arith.constant 324 : i32 loc(#loc114)
      %c324_i32_25 = arith.constant 324 : i32 loc(#loc114)
      %cst_26 = arith.constant dense<324> : tensor<1x1xi32> loc(#loc114)
      %35 = arith.muli %cst_26, %5 : tensor<1x1xi32> loc(#loc114)
      %36 = tt.broadcast %35 : tensor<1x1xi32> -> tensor<1x256xi32> loc(#loc115)
      %37 = arith.addi %33, %36 : tensor<1x256xi32> loc(#loc115)
      %38 = tt.splat %arg2 : !tt.ptr<f32> -> tensor<1x256x!tt.ptr<f32>> loc(#loc116)
      %39 = tt.addptr %38, %37 : tensor<1x256x!tt.ptr<f32>>, tensor<1x256xi32> loc(#loc116)
      %40 = tt.broadcast %6 : tensor<1x1xi1> -> tensor<1x256xi1> loc(#loc117)
      %41 = arith.andi %34, %40 : tensor<1x256xi1> loc(#loc117)
      %cst_27 = arith.constant 0.000000e+00 : f32 loc(#loc118)
      %cst_28 = arith.constant dense<0.000000e+00> : tensor<1x256xf32> loc(#loc118)
      %42 = tt.load %39, %41, %cst_28 evictionPolicy = evict_first : tensor<1x256x!tt.ptr<f32>> loc(#loc118)
      %c324_i32_29 = arith.constant 324 : i32 loc(#loc119)
      %c324_i32_30 = arith.constant 324 : i32 loc(#loc119)
      %cst_31 = arith.constant dense<324> : tensor<1x1xi32> loc(#loc119)
      %43 = arith.muli %cst_31, %9 : tensor<1x1xi32> loc(#loc119)
      %44 = tt.broadcast %43 : tensor<1x1xi32> -> tensor<1x256xi32> loc(#loc120)
      %45 = arith.addi %33, %44 : tensor<1x256xi32> loc(#loc120)
      %c104992_i32 = arith.constant 104992 : i32 loc(#loc121)
      %c104992_i32_32 = arith.constant 104992 : i32 loc(#loc121)
      %cst_33 = arith.constant dense<104992> : tensor<1x1xi32> loc(#loc121)
      %46 = arith.muli %cst_33, %13 : tensor<1x1xi32> loc(#loc121)
      %47 = tt.broadcast %46 : tensor<1x1xi32> -> tensor<1x256xi32> loc(#loc122)
      %48 = arith.addi %45, %47 : tensor<1x256xi32> loc(#loc122)
      %49 = tt.splat %arg3 : !tt.ptr<f32> -> tensor<1x256x!tt.ptr<f32>> loc(#loc123)
      %50 = tt.addptr %49, %48 : tensor<1x256x!tt.ptr<f32>>, tensor<1x256xi32> loc(#loc123)
      %51 = tt.broadcast %6 : tensor<1x1xi1> -> tensor<1x256xi1> loc(#loc124)
      %52 = arith.andi %34, %51 : tensor<1x256xi1> loc(#loc124)
      %cst_34 = arith.constant 0.000000e+00 : f32 loc(#loc125)
      %cst_35 = arith.constant dense<0.000000e+00> : tensor<1x256xf32> loc(#loc125)
      %53 = tt.load %50, %52, %cst_35 evictionPolicy = evict_first : tensor<1x256x!tt.ptr<f32>> loc(#loc125)
      %c0_i32_36 = arith.constant 0 : i32 loc(#loc126)
      %54 = arith.extui %24 : tensor<1x1xi1> to tensor<1x1xi32> loc(#loc126)
      %cst_37 = arith.constant dense<0> : tensor<1x1xi32> loc(#loc126)
      %55 = arith.cmpi eq, %54, %cst_37 : tensor<1x1xi32> loc(#loc126)
      %56 = arith.addf %42, %53 : tensor<1x256xf32> loc(#loc127)
      %57 = tt.broadcast %26 : tensor<1x1xf32> -> tensor<1x256xf32> loc(#loc128)
      %58 = arith.subf %56, %57 : tensor<1x256xf32> loc(#loc128)
      %59 = math.exp %58 : tensor<1x256xf32> loc(#loc129)
      %60 = tt.broadcast %27 : tensor<1x1xf32> -> tensor<1x256xf32> loc(#loc130)
      %61 = arith.divf %59, %60 : tensor<1x256xf32> loc(#loc130)
      %cst_38 = arith.constant 0.000000e+00 : f32 loc(#loc131)
      %cst_39 = arith.constant dense<0.000000e+00> : tensor<1x256xf32> loc(#loc132)
      %62 = tt.broadcast %55 : tensor<1x1xi1> -> tensor<1x256xi1> loc(#loc132)
      %63 = arith.select %62, %cst_39, %61 : tensor<1x256xi1>, tensor<1x256xf32> loc(#loc132)
      %c324_i32_40 = arith.constant 324 : i32 loc(#loc133)
      %c324_i32_41 = arith.constant 324 : i32 loc(#loc133)
      %cst_42 = arith.constant dense<324> : tensor<1x1xi32> loc(#loc133)
      %64 = arith.muli %cst_42, %9 : tensor<1x1xi32> loc(#loc133)
      %65 = tt.broadcast %64 : tensor<1x1xi32> -> tensor<1x256xi32> loc(#loc134)
      %66 = arith.addi %33, %65 : tensor<1x256xi32> loc(#loc134)
      %c104992_i32_43 = arith.constant 104992 : i32 loc(#loc135)
      %c104992_i32_44 = arith.constant 104992 : i32 loc(#loc135)
      %cst_45 = arith.constant dense<104992> : tensor<1x1xi32> loc(#loc135)
      %67 = arith.muli %cst_45, %13 : tensor<1x1xi32> loc(#loc135)
      %68 = tt.broadcast %67 : tensor<1x1xi32> -> tensor<1x256xi32> loc(#loc136)
      %69 = arith.addi %66, %68 : tensor<1x256xi32> loc(#loc136)
      %70 = tt.splat %arg4 : !tt.ptr<f32> -> tensor<1x256x!tt.ptr<f32>> loc(#loc137)
      %71 = tt.addptr %70, %69 : tensor<1x256x!tt.ptr<f32>>, tensor<1x256xi32> loc(#loc137)
      %72 = tt.broadcast %6 : tensor<1x1xi1> -> tensor<1x256xi1> loc(#loc138)
      %73 = arith.andi %34, %72 : tensor<1x256xi1> loc(#loc138)
      tt.store %71, %63, %73 : tensor<1x256x!tt.ptr<f32>> loc(#loc139)
    } loc(#loc111)
    tt.return loc(#loc140)
  } loc(#loc)
  tt.func private @"triton.language.standard.zeros____(0, 0)cconstexpr_1__(0, 1)cconstexpr_256__(1,)cconstexpr_fp32_"() -> tensor<1x256xf32> attributes {noinline = false} {
    %cst = arith.constant 0.000000e+00 : f32 loc(#loc142)
    %cst_0 = arith.constant dense<0.000000e+00> : tensor<1x256xf32> loc(#loc142)
    tt.return %cst_0 : tensor<1x256xf32> loc(#loc143)
  ^bb1:  // no predecessors
    %0 = ub.poison : tensor<1x256xf32> loc(#loc144)
    tt.return %0 : tensor<1x256xf32> loc(#loc144)
  } loc(#loc141)
  tt.func private @torch._inductor.runtime.triton_helpers.minimum__i64S1_256S_i64S1_1S__(%arg0: tensor<1x256xi64> loc("/mnt/disk1/anaconda3/envs/pqhung/lib/python3.9/site-packages/torch/_inductor/runtime/triton_helpers.py":102:0), %arg1: tensor<1x1xi64> loc("/mnt/disk1/anaconda3/envs/pqhung/lib/python3.9/site-packages/torch/_inductor/runtime/triton_helpers.py":102:0)) -> tensor<1x256xi64> attributes {noinline = false} {
    %0 = tt.broadcast %arg1 : tensor<1x1xi64> -> tensor<1x256xi64> loc(#loc146)
    %1 = arith.cmpi slt, %arg0, %0 : tensor<1x256xi64> loc(#loc146)
    %2 = tt.call @torch._inductor.runtime.triton_helpers.is_floating__i64S1_256S__(%arg0) : (tensor<1x256xi64>) -> i1 loc(#loc147)
    %3 = scf.if %2 -> (tensor<1x256xi1>) {
      %7 = arith.cmpi ne, %arg0, %arg0 : tensor<1x256xi64> loc(#loc149)
      %8 = arith.ori %1, %7 : tensor<1x256xi1> loc(#loc150)
      scf.yield %8 : tensor<1x256xi1> loc(#loc150)
    } else {
      scf.yield %1 : tensor<1x256xi1> loc(#loc151)
    } loc(#loc148)
    %4 = tt.broadcast %arg1 : tensor<1x1xi64> -> tensor<1x256xi64> loc(#loc152)
    %5 = arith.select %3, %arg0, %4 : tensor<1x256xi1>, tensor<1x256xi64> loc(#loc152)
    tt.return %5 : tensor<1x256xi64> loc(#loc153)
  ^bb1:  // no predecessors
    %6 = ub.poison : tensor<1x256xi64> loc(#loc154)
    tt.return %6 : tensor<1x256xi64> loc(#loc154)
  } loc(#loc145)
  tt.func private @torch._inductor.runtime.triton_helpers.is_floating__i64S1_256S__(%arg0: tensor<1x256xi64> loc("/mnt/disk1/anaconda3/envs/pqhung/lib/python3.9/site-packages/torch/_inductor/runtime/triton_helpers.py":87:0)) -> i1 attributes {noinline = false} {
    %0 = tt.call @torch._inductor.runtime.triton_helpers.promote_to_tensor__i64S1_256S__(%arg0) : (tensor<1x256xi64>) -> tensor<1x256xi64> loc(#loc156)
    %false = arith.constant false loc(#loc157)
    tt.return %false : i1 loc(#loc157)
  ^bb1:  // no predecessors
    %1 = ub.poison : i1 loc(#loc158)
    tt.return %1 : i1 loc(#loc158)
  } loc(#loc155)
  tt.func private @torch._inductor.runtime.triton_helpers.promote_to_tensor__i64S1_256S__(%arg0: tensor<1x256xi64> loc("/mnt/disk1/anaconda3/envs/pqhung/lib/python3.9/site-packages/torch/_inductor/runtime/triton_helpers.py":64:0)) -> tensor<1x256xi64> attributes {noinline = false} {
    %0 = tt.call @"triton.language.standard.zeros____(0, 0)cconstexpr_1__(1,)cconstexpr_int1_"() : () -> tensor<1xi1> loc(#loc160)
    %1 = arith.extui %0 : tensor<1xi1> to tensor<1xi64> loc(#loc161)
    %2 = tt.expand_dims %1 {axis = 0 : i32} : tensor<1xi64> -> tensor<1x1xi64> loc(#loc161)
    %3 = tt.broadcast %2 : tensor<1x1xi64> -> tensor<1x256xi64> loc(#loc161)
    %4 = arith.addi %arg0, %3 : tensor<1x256xi64> loc(#loc161)
    tt.return %4 : tensor<1x256xi64> loc(#loc162)
  ^bb1:  // no predecessors
    %5 = ub.poison : tensor<1x256xi64> loc(#loc163)
    tt.return %5 : tensor<1x256xi64> loc(#loc163)
  } loc(#loc159)
  tt.func private @"triton.language.standard.zeros____(0, 0)cconstexpr_1__(1,)cconstexpr_int1_"() -> tensor<1xi1> attributes {noinline = false} {
    %false = arith.constant false loc(#loc142)
    %cst = arith.constant dense<false> : tensor<1xi1> loc(#loc142)
    tt.return %cst : tensor<1xi1> loc(#loc143)
  ^bb1:  // no predecessors
    %0 = ub.poison : tensor<1xi1> loc(#loc144)
    tt.return %0 : tensor<1xi1> loc(#loc144)
  } loc(#loc141)
  tt.func private @"torch._inductor.runtime.triton_helpers.online_softmax_combine__fp32S1_256S_fp32S1_256S_fp32S1_256S__(3,)cconstexpr_False_"(%arg0: tensor<1x256xf32> loc("/mnt/disk1/anaconda3/envs/pqhung/lib/python3.9/site-packages/torch/_inductor/runtime/triton_helpers.py":187:0), %arg1: tensor<1x256xf32> loc("/mnt/disk1/anaconda3/envs/pqhung/lib/python3.9/site-packages/torch/_inductor/runtime/triton_helpers.py":187:0), %arg2: tensor<1x256xf32> loc("/mnt/disk1/anaconda3/envs/pqhung/lib/python3.9/site-packages/torch/_inductor/runtime/triton_helpers.py":187:0)) -> (tensor<1x256xf32>, tensor<1x256xf32>) attributes {noinline = false} {
    %0 = tt.call @torch._inductor.runtime.triton_helpers.maximum__fp32S1_256S_fp32S1_256S__(%arg0, %arg2) : (tensor<1x256xf32>, tensor<1x256xf32>) -> tensor<1x256xf32> loc(#loc165)
    %cst = arith.constant 0xFF800000 : f32 loc(#loc166)
    %cst_0 = arith.constant dense<0xFF800000> : tensor<1x256xf32> loc(#loc166)
    %1 = arith.cmpf oeq, %0, %cst_0 : tensor<1x256xf32> loc(#loc166)
    %2 = arith.subf %arg0, %0 : tensor<1x256xf32> loc(#loc167)
    %3 = tt.call @"torch._inductor.runtime.triton_helpers.exp__fp32S1_256S__(1,)cconstexpr_False_"(%2) : (tensor<1x256xf32>) -> tensor<1x256xf32> loc(#loc168)
    %cst_1 = arith.constant 1.000000e+00 : f32 loc(#loc169)
    %cst_2 = arith.constant 1.000000e+00 : f32 loc(#loc169)
    %cst_3 = arith.constant dense<1.000000e+00> : tensor<1x256xf32> loc(#loc169)
    %4 = arith.select %1, %cst_3, %3 : tensor<1x256xi1>, tensor<1x256xf32> loc(#loc169)
    %cst_4 = arith.constant 0xFF800000 : f32 loc(#loc170)
    %cst_5 = arith.constant dense<0xFF800000> : tensor<1x256xf32> loc(#loc170)
    %5 = arith.cmpf oeq, %0, %cst_5 : tensor<1x256xf32> loc(#loc170)
    %6 = arith.subf %arg2, %0 : tensor<1x256xf32> loc(#loc171)
    %7 = tt.call @"torch._inductor.runtime.triton_helpers.exp__fp32S1_256S__(1,)cconstexpr_False_"(%6) : (tensor<1x256xf32>) -> tensor<1x256xf32> loc(#loc172)
    %cst_6 = arith.constant 1.000000e+00 : f32 loc(#loc173)
    %cst_7 = arith.constant 1.000000e+00 : f32 loc(#loc173)
    %cst_8 = arith.constant dense<1.000000e+00> : tensor<1x256xf32> loc(#loc173)
    %8 = arith.select %5, %cst_8, %7 : tensor<1x256xi1>, tensor<1x256xf32> loc(#loc173)
    %9 = arith.mulf %arg1, %4 : tensor<1x256xf32> loc(#loc174)
    %10 = arith.addf %9, %8 : tensor<1x256xf32> loc(#loc175)
    tt.return %0, %10 : tensor<1x256xf32>, tensor<1x256xf32> loc(#loc176)
  ^bb1:  // no predecessors
    %11 = ub.poison : tensor<1x256xf32> loc(#loc177)
    %12 = ub.poison : tensor<1x256xf32> loc(#loc177)
    tt.return %11, %12 : tensor<1x256xf32>, tensor<1x256xf32> loc(#loc177)
  } loc(#loc164)
  tt.func private @torch._inductor.runtime.triton_helpers.maximum__fp32S1_256S_fp32S1_256S__(%arg0: tensor<1x256xf32> loc("/mnt/disk1/anaconda3/envs/pqhung/lib/python3.9/site-packages/torch/_inductor/runtime/triton_helpers.py":110:0), %arg1: tensor<1x256xf32> loc("/mnt/disk1/anaconda3/envs/pqhung/lib/python3.9/site-packages/torch/_inductor/runtime/triton_helpers.py":110:0)) -> tensor<1x256xf32> attributes {noinline = false} {
    %0 = arith.cmpf ogt, %arg0, %arg1 : tensor<1x256xf32> loc(#loc179)
    %1 = tt.call @torch._inductor.runtime.triton_helpers.is_floating__fp32S1_256S__(%arg0) : (tensor<1x256xf32>) -> i1 loc(#loc180)
    %2 = scf.if %1 -> (tensor<1x256xi1>) {
      %5 = arith.cmpf une, %arg0, %arg0 : tensor<1x256xf32> loc(#loc182)
      %6 = arith.ori %0, %5 : tensor<1x256xi1> loc(#loc183)
      scf.yield %6 : tensor<1x256xi1> loc(#loc183)
    } else {
      scf.yield %0 : tensor<1x256xi1> loc(#loc151)
    } loc(#loc181)
    %3 = arith.select %2, %arg0, %arg1 : tensor<1x256xi1>, tensor<1x256xf32> loc(#loc184)
    tt.return %3 : tensor<1x256xf32> loc(#loc185)
  ^bb1:  // no predecessors
    %4 = ub.poison : tensor<1x256xf32> loc(#loc186)
    tt.return %4 : tensor<1x256xf32> loc(#loc186)
  } loc(#loc178)
  tt.func private @torch._inductor.runtime.triton_helpers.is_floating__fp32S1_256S__(%arg0: tensor<1x256xf32> loc("/mnt/disk1/anaconda3/envs/pqhung/lib/python3.9/site-packages/torch/_inductor/runtime/triton_helpers.py":87:0)) -> i1 attributes {noinline = false} {
    %0 = tt.call @torch._inductor.runtime.triton_helpers.promote_to_tensor__fp32S1_256S__(%arg0) : (tensor<1x256xf32>) -> tensor<1x256xf32> loc(#loc156)
    %true = arith.constant true loc(#loc157)
    tt.return %true : i1 loc(#loc157)
  ^bb1:  // no predecessors
    %1 = ub.poison : i1 loc(#loc158)
    tt.return %1 : i1 loc(#loc158)
  } loc(#loc155)
  tt.func private @torch._inductor.runtime.triton_helpers.promote_to_tensor__fp32S1_256S__(%arg0: tensor<1x256xf32> loc("/mnt/disk1/anaconda3/envs/pqhung/lib/python3.9/site-packages/torch/_inductor/runtime/triton_helpers.py":64:0)) -> tensor<1x256xf32> attributes {noinline = false} {
    %0 = tt.call @"triton.language.standard.zeros____(0, 0)cconstexpr_1__(1,)cconstexpr_int1_"() : () -> tensor<1xi1> loc(#loc160)
    %1 = arith.uitofp %0 : tensor<1xi1> to tensor<1xf32> loc(#loc161)
    %2 = tt.expand_dims %1 {axis = 0 : i32} : tensor<1xf32> -> tensor<1x1xf32> loc(#loc161)
    %3 = tt.broadcast %2 : tensor<1x1xf32> -> tensor<1x256xf32> loc(#loc161)
    %4 = arith.addf %arg0, %3 : tensor<1x256xf32> loc(#loc161)
    tt.return %4 : tensor<1x256xf32> loc(#loc162)
  ^bb1:  // no predecessors
    %5 = ub.poison : tensor<1x256xf32> loc(#loc163)
    tt.return %5 : tensor<1x256xf32> loc(#loc163)
  } loc(#loc159)
  tt.func private @"torch._inductor.runtime.triton_helpers.exp__fp32S1_256S__(1,)cconstexpr_False_"(%arg0: tensor<1x256xf32> loc("/mnt/disk1/anaconda3/envs/pqhung/lib/python3.9/site-packages/torch/_inductor/runtime/triton_helpers.py":170:0)) -> tensor<1x256xf32> attributes {noinline = false} {
    %0 = math.exp %arg0 : tensor<1x256xf32> loc(#loc188)
    tt.return %0 : tensor<1x256xf32> loc(#loc189)
  ^bb1:  // no predecessors
    %1 = ub.poison : tensor<1x256xf32> loc(#loc190)
    tt.return %1 : tensor<1x256xf32> loc(#loc190)
  } loc(#loc187)
  tt.func private @"torch._inductor.runtime.triton_helpers.any__i8S1_256S__(1,)cconstexpr_1_"(%arg0: tensor<1x256xi8> loc("/mnt/disk1/anaconda3/envs/pqhung/lib/python3.9/site-packages/torch/_inductor/runtime/triton_helpers.py":265:0)) -> tensor<1xi8> attributes {noinline = false} {
    %0 = "tt.reduce"(%arg0) <{axis = 1 : i32}> ({
    ^bb0(%arg1: i8 loc(unknown), %arg2: i8 loc(unknown)):
      %2 = tt.call @torch._inductor.runtime.triton_helpers._any_combine__i8_i8__(%arg1, %arg2) : (i8, i8) -> i8 loc(#loc192)
      tt.reduce.return %2 : i8 loc(#loc192)
    }) : (tensor<1x256xi8>) -> tensor<1xi8> loc(#loc192)
    tt.return %0 : tensor<1xi8> loc(#loc193)
  ^bb1:  // no predecessors
    %1 = ub.poison : tensor<1xi8> loc(#loc194)
    tt.return %1 : tensor<1xi8> loc(#loc194)
  } loc(#loc191)
  tt.func private @torch._inductor.runtime.triton_helpers._any_combine__i8_i8__(%arg0: i8 loc("/mnt/disk1/anaconda3/envs/pqhung/lib/python3.9/site-packages/torch/_inductor/runtime/triton_helpers.py":260:0), %arg1: i8 loc("/mnt/disk1/anaconda3/envs/pqhung/lib/python3.9/site-packages/torch/_inductor/runtime/triton_helpers.py":260:0)) -> i8 attributes {noinline = false} {
    %0 = arith.ori %arg0, %arg1 : i8 loc(#loc196)
    tt.return %0 : i8 loc(#loc197)
  ^bb1:  // no predecessors
    %1 = ub.poison : i8 loc(#loc198)
    tt.return %1 : i8 loc(#loc198)
  } loc(#loc195)
  tt.func private @"torch._inductor.runtime.triton_helpers.online_softmax_reduce__fp32S1_256S_fp32S1_256S__(2,)cconstexpr_1__(3,)cconstexpr_False_"(%arg0: tensor<1x256xf32> loc("/mnt/disk1/anaconda3/envs/pqhung/lib/python3.9/site-packages/torch/_inductor/runtime/triton_helpers.py":178:0), %arg1: tensor<1x256xf32> loc("/mnt/disk1/anaconda3/envs/pqhung/lib/python3.9/site-packages/torch/_inductor/runtime/triton_helpers.py":178:0)) -> (tensor<1xf32>, tensor<1xf32>) attributes {noinline = false} {
    %0 = tt.call @"torch._inductor.runtime.triton_helpers.max2__fp32S1_256S__(1,)cconstexpr_1_"(%arg0) : (tensor<1x256xf32>) -> tensor<1xf32> loc(#loc200)
    %1 = tt.expand_dims %0 {axis = 1 : i32} : tensor<1xf32> -> tensor<1x1xf32> loc(#loc201)
    %cst = arith.constant 0xFF800000 : f32 loc(#loc202)
    %cst_0 = arith.constant dense<0xFF800000> : tensor<1x1xf32> loc(#loc202)
    %2 = arith.cmpf oeq, %1, %cst_0 : tensor<1x1xf32> loc(#loc202)
    %3 = tt.broadcast %1 : tensor<1x1xf32> -> tensor<1x256xf32> loc(#loc203)
    %4 = arith.subf %arg0, %3 : tensor<1x256xf32> loc(#loc203)
    %c0_i32 = arith.constant 0 : i32 loc(#loc204)
    %cst_1 = arith.constant 0.000000e+00 : f32 loc(#loc204)
    %cst_2 = arith.constant dense<0.000000e+00> : tensor<1x256xf32> loc(#loc204)
    %5 = tt.broadcast %2 : tensor<1x1xi1> -> tensor<1x256xi1> loc(#loc204)
    %6 = arith.select %5, %cst_2, %4 : tensor<1x256xi1>, tensor<1x256xf32> loc(#loc204)
    %7 = tt.call @"torch._inductor.runtime.triton_helpers.exp__fp32S1_256S__(1,)cconstexpr_False_"(%6) : (tensor<1x256xf32>) -> tensor<1x256xf32> loc(#loc205)
    %8 = arith.mulf %arg1, %7 : tensor<1x256xf32> loc(#loc206)
    %9 = tt.call @"triton.language.standard.sum__fp32S1_256S__(1,)cconstexpr_1__(2,)cconstexpr_False__(3,)cNone"(%8) : (tensor<1x256xf32>) -> tensor<1xf32> loc(#loc207)
    tt.return %0, %9 : tensor<1xf32>, tensor<1xf32> loc(#loc208)
  ^bb1:  // no predecessors
    %10 = ub.poison : tensor<1xf32> loc(#loc209)
    %11 = ub.poison : tensor<1xf32> loc(#loc209)
    tt.return %10, %11 : tensor<1xf32>, tensor<1xf32> loc(#loc209)
  } loc(#loc199)
  tt.func private @"torch._inductor.runtime.triton_helpers.max2__fp32S1_256S__(1,)cconstexpr_1_"(%arg0: tensor<1x256xf32> loc("/mnt/disk1/anaconda3/envs/pqhung/lib/python3.9/site-packages/torch/_inductor/runtime/triton_helpers.py":123:0)) -> tensor<1xf32> attributes {noinline = false} {
    %0 = "tt.reduce"(%arg0) <{axis = 1 : i32}> ({
    ^bb0(%arg1: f32 loc(unknown), %arg2: f32 loc(unknown)):
      %2 = tt.call @torch._inductor.runtime.triton_helpers.maximum__fp32_fp32__(%arg1, %arg2) : (f32, f32) -> f32 loc(#loc211)
      tt.reduce.return %2 : f32 loc(#loc211)
    }) : (tensor<1x256xf32>) -> tensor<1xf32> loc(#loc211)
    tt.return %0 : tensor<1xf32> loc(#loc212)
  ^bb1:  // no predecessors
    %1 = ub.poison : tensor<1xf32> loc(#loc213)
    tt.return %1 : tensor<1xf32> loc(#loc213)
  } loc(#loc210)
  tt.func private @torch._inductor.runtime.triton_helpers.maximum__fp32_fp32__(%arg0: f32 loc("/mnt/disk1/anaconda3/envs/pqhung/lib/python3.9/site-packages/torch/_inductor/runtime/triton_helpers.py":110:0), %arg1: f32 loc("/mnt/disk1/anaconda3/envs/pqhung/lib/python3.9/site-packages/torch/_inductor/runtime/triton_helpers.py":110:0)) -> f32 attributes {noinline = false} {
    %0 = arith.cmpf ogt, %arg0, %arg1 : f32 loc(#loc179)
    %1 = tt.call @torch._inductor.runtime.triton_helpers.is_floating__fp32__(%arg0) : (f32) -> i1 loc(#loc180)
    %2 = scf.if %1 -> (i1) {
      %5 = arith.cmpf une, %arg0, %arg0 : f32 loc(#loc182)
      %6 = arith.ori %0, %5 : i1 loc(#loc183)
      scf.yield %6 : i1 loc(#loc183)
    } else {
      scf.yield %0 : i1 loc(#loc151)
    } loc(#loc181)
    %3 = arith.select %2, %arg0, %arg1 : f32 loc(#loc184)
    tt.return %3 : f32 loc(#loc185)
  ^bb1:  // no predecessors
    %4 = ub.poison : f32 loc(#loc186)
    tt.return %4 : f32 loc(#loc186)
  } loc(#loc178)
  tt.func private @torch._inductor.runtime.triton_helpers.is_floating__fp32__(%arg0: f32 loc("/mnt/disk1/anaconda3/envs/pqhung/lib/python3.9/site-packages/torch/_inductor/runtime/triton_helpers.py":87:0)) -> i1 attributes {noinline = false} {
    %0 = tt.call @torch._inductor.runtime.triton_helpers.promote_to_tensor__fp32__(%arg0) : (f32) -> tensor<1xf32> loc(#loc156)
    %true = arith.constant true loc(#loc157)
    tt.return %true : i1 loc(#loc157)
  ^bb1:  // no predecessors
    %1 = ub.poison : i1 loc(#loc158)
    tt.return %1 : i1 loc(#loc158)
  } loc(#loc155)
  tt.func private @torch._inductor.runtime.triton_helpers.promote_to_tensor__fp32__(%arg0: f32 loc("/mnt/disk1/anaconda3/envs/pqhung/lib/python3.9/site-packages/torch/_inductor/runtime/triton_helpers.py":64:0)) -> tensor<1xf32> attributes {noinline = false} {
    %0 = tt.call @"triton.language.standard.zeros____(0, 0)cconstexpr_1__(1,)cconstexpr_int1_"() : () -> tensor<1xi1> loc(#loc160)
    %1 = arith.uitofp %0 : tensor<1xi1> to tensor<1xf32> loc(#loc161)
    %2 = tt.splat %arg0 : f32 -> tensor<1xf32> loc(#loc161)
    %3 = arith.addf %2, %1 : tensor<1xf32> loc(#loc161)
    tt.return %3 : tensor<1xf32> loc(#loc162)
  ^bb1:  // no predecessors
    %4 = ub.poison : tensor<1xf32> loc(#loc163)
    tt.return %4 : tensor<1xf32> loc(#loc163)
  } loc(#loc159)
  tt.func private @"triton.language.standard.sum__fp32S1_256S__(1,)cconstexpr_1__(2,)cconstexpr_False__(3,)cNone"(%arg0: tensor<1x256xf32> loc("/mnt/disk1/anaconda3/envs/pqhung/lib/python3.9/site-packages/triton/language/standard.py":284:0)) -> tensor<1xf32> attributes {noinline = false} {
    %0 = "tt.reduce"(%arg0) <{axis = 1 : i32}> ({
    ^bb0(%arg1: f32 loc(unknown), %arg2: f32 loc(unknown)):
      %2 = tt.call @triton.language.standard._sum_combine__fp32_fp32__(%arg1, %arg2) : (f32, f32) -> f32 loc(#loc215)
      tt.reduce.return %2 : f32 loc(#loc215)
    }) : (tensor<1x256xf32>) -> tensor<1xf32> loc(#loc215)
    tt.return %0 : tensor<1xf32> loc(#loc216)
  ^bb1:  // no predecessors
    %1 = ub.poison : tensor<1xf32> loc(#loc217)
    tt.return %1 : tensor<1xf32> loc(#loc217)
  } loc(#loc214)
  tt.func private @triton.language.standard._sum_combine__fp32_fp32__(%arg0: f32 loc("/mnt/disk1/anaconda3/envs/pqhung/lib/python3.9/site-packages/triton/language/standard.py":259:0), %arg1: f32 loc("/mnt/disk1/anaconda3/envs/pqhung/lib/python3.9/site-packages/triton/language/standard.py":259:0)) -> f32 attributes {noinline = false} {
    %0 = arith.addf %arg0, %arg1 : f32 loc(#loc219)
    tt.return %0 : f32 loc(#loc220)
  ^bb1:  // no predecessors
    %1 = ub.poison : f32 loc(#loc221)
    tt.return %1 : f32 loc(#loc221)
  } loc(#loc218)
} loc(#loc)
#loc1 = loc("/mnt/disk1/khiemtt/universal-offline-bbo/torchinductor_ubuntu/ci/ccisb2yra76ab2haychl3vkjloggui7jornx4qodogdjo7v6y64e.py":19:13)
#loc2 = loc("/mnt/disk1/khiemtt/universal-offline-bbo/torchinductor_ubuntu/ci/ccisb2yra76ab2haychl3vkjloggui7jornx4qodogdjo7v6y64e.py":20:15)
#loc3 = loc("/mnt/disk1/khiemtt/universal-offline-bbo/torchinductor_ubuntu/ci/ccisb2yra76ab2haychl3vkjloggui7jornx4qodogdjo7v6y64e.py":23:28)
#loc4 = loc("/mnt/disk1/khiemtt/universal-offline-bbo/torchinductor_ubuntu/ci/ccisb2yra76ab2haychl3vkjloggui7jornx4qodogdjo7v6y64e.py":23:33)
#loc5 = loc("/mnt/disk1/khiemtt/universal-offline-bbo/torchinductor_ubuntu/ci/ccisb2yra76ab2haychl3vkjloggui7jornx4qodogdjo7v6y64e.py":24:36)
#loc6 = loc("/mnt/disk1/khiemtt/universal-offline-bbo/torchinductor_ubuntu/ci/ccisb2yra76ab2haychl3vkjloggui7jornx4qodogdjo7v6y64e.py":24:44)
#loc7 = loc("/mnt/disk1/khiemtt/universal-offline-bbo/torchinductor_ubuntu/ci/ccisb2yra76ab2haychl3vkjloggui7jornx4qodogdjo7v6y64e.py":24:23)
#loc8 = loc("/mnt/disk1/khiemtt/universal-offline-bbo/torchinductor_ubuntu/ci/ccisb2yra76ab2haychl3vkjloggui7jornx4qodogdjo7v6y64e.py":25:21)
#loc9 = loc("/mnt/disk1/khiemtt/universal-offline-bbo/torchinductor_ubuntu/ci/ccisb2yra76ab2haychl3vkjloggui7jornx4qodogdjo7v6y64e.py":26:27)
#loc10 = loc("/mnt/disk1/khiemtt/universal-offline-bbo/torchinductor_ubuntu/ci/ccisb2yra76ab2haychl3vkjloggui7jornx4qodogdjo7v6y64e.py":26:37)
#loc11 = loc("/mnt/disk1/khiemtt/universal-offline-bbo/torchinductor_ubuntu/ci/ccisb2yra76ab2haychl3vkjloggui7jornx4qodogdjo7v6y64e.py":28:19)
#loc12 = loc("/mnt/disk1/khiemtt/universal-offline-bbo/torchinductor_ubuntu/ci/ccisb2yra76ab2haychl3vkjloggui7jornx4qodogdjo7v6y64e.py":29:21)
#loc13 = loc("/mnt/disk1/khiemtt/universal-offline-bbo/torchinductor_ubuntu/ci/ccisb2yra76ab2haychl3vkjloggui7jornx4qodogdjo7v6y64e.py":29:28)
#loc14 = loc("/mnt/disk1/khiemtt/universal-offline-bbo/torchinductor_ubuntu/ci/ccisb2yra76ab2haychl3vkjloggui7jornx4qodogdjo7v6y64e.py":30:19)
#loc15 = loc("/mnt/disk1/khiemtt/universal-offline-bbo/torchinductor_ubuntu/ci/ccisb2yra76ab2haychl3vkjloggui7jornx4qodogdjo7v6y64e.py":31:19)
#loc16 = loc("/mnt/disk1/khiemtt/universal-offline-bbo/torchinductor_ubuntu/ci/ccisb2yra76ab2haychl3vkjloggui7jornx4qodogdjo7v6y64e.py":33:48)
#loc17 = loc("/mnt/disk1/khiemtt/universal-offline-bbo/torchinductor_ubuntu/ci/ccisb2yra76ab2haychl3vkjloggui7jornx4qodogdjo7v6y64e.py":34:19)
#loc18 = loc("/mnt/disk1/khiemtt/universal-offline-bbo/torchinductor_ubuntu/ci/ccisb2yra76ab2haychl3vkjloggui7jornx4qodogdjo7v6y64e.py":35:60)
#loc19 = loc("/mnt/disk1/khiemtt/universal-offline-bbo/torchinductor_ubuntu/ci/ccisb2yra76ab2haychl3vkjloggui7jornx4qodogdjo7v6y64e.py":36:46)
#loc20 = loc("/mnt/disk1/khiemtt/universal-offline-bbo/torchinductor_ubuntu/ci/ccisb2yra76ab2haychl3vkjloggui7jornx4qodogdjo7v6y64e.py":37:40)
#loc21 = loc("/mnt/disk1/khiemtt/universal-offline-bbo/torchinductor_ubuntu/ci/ccisb2yra76ab2haychl3vkjloggui7jornx4qodogdjo7v6y64e.py":38:31)
#loc22 = loc("/mnt/disk1/khiemtt/universal-offline-bbo/torchinductor_ubuntu/ci/ccisb2yra76ab2haychl3vkjloggui7jornx4qodogdjo7v6y64e.py":39:29)
#loc23 = loc("/mnt/disk1/khiemtt/universal-offline-bbo/torchinductor_ubuntu/ci/ccisb2yra76ab2haychl3vkjloggui7jornx4qodogdjo7v6y64e.py":43:46)
#loc24 = loc("/mnt/disk1/khiemtt/universal-offline-bbo/torchinductor_ubuntu/ci/ccisb2yra76ab2haychl3vkjloggui7jornx4qodogdjo7v6y64e.py":43:42)
#loc25 = loc("/mnt/disk1/khiemtt/universal-offline-bbo/torchinductor_ubuntu/ci/ccisb2yra76ab2haychl3vkjloggui7jornx4qodogdjo7v6y64e.py":43:35)
#loc26 = loc("/mnt/disk1/khiemtt/universal-offline-bbo/torchinductor_ubuntu/ci/ccisb2yra76ab2haychl3vkjloggui7jornx4qodogdjo7v6y64e.py":43:61)
#loc27 = loc("/mnt/disk1/khiemtt/universal-offline-bbo/torchinductor_ubuntu/ci/ccisb2yra76ab2haychl3vkjloggui7jornx4qodogdjo7v6y64e.py":43:51)
#loc28 = loc("/mnt/disk1/khiemtt/universal-offline-bbo/torchinductor_ubuntu/ci/ccisb2yra76ab2haychl3vkjloggui7jornx4qodogdjo7v6y64e.py":44:46)
#loc29 = loc("/mnt/disk1/khiemtt/universal-offline-bbo/torchinductor_ubuntu/ci/ccisb2yra76ab2haychl3vkjloggui7jornx4qodogdjo7v6y64e.py":44:42)
#loc30 = loc("/mnt/disk1/khiemtt/universal-offline-bbo/torchinductor_ubuntu/ci/ccisb2yra76ab2haychl3vkjloggui7jornx4qodogdjo7v6y64e.py":44:35)
#loc31 = loc("/mnt/disk1/khiemtt/universal-offline-bbo/torchinductor_ubuntu/ci/ccisb2yra76ab2haychl3vkjloggui7jornx4qodogdjo7v6y64e.py":44:61)
#loc32 = loc("/mnt/disk1/khiemtt/universal-offline-bbo/torchinductor_ubuntu/ci/ccisb2yra76ab2haychl3vkjloggui7jornx4qodogdjo7v6y64e.py":44:51)
#loc33 = loc("/mnt/disk1/khiemtt/universal-offline-bbo/torchinductor_ubuntu/ci/ccisb2yra76ab2haychl3vkjloggui7jornx4qodogdjo7v6y64e.py":45:28)
#loc34 = loc("/mnt/disk1/khiemtt/universal-offline-bbo/torchinductor_ubuntu/ci/ccisb2yra76ab2haychl3vkjloggui7jornx4qodogdjo7v6y64e.py":45:23)
#loc35 = loc("/mnt/disk1/khiemtt/universal-offline-bbo/torchinductor_ubuntu/ci/ccisb2yra76ab2haychl3vkjloggui7jornx4qodogdjo7v6y64e.py":46:34)
#loc36 = loc("/mnt/disk1/khiemtt/universal-offline-bbo/torchinductor_ubuntu/ci/ccisb2yra76ab2haychl3vkjloggui7jornx4qodogdjo7v6y64e.py":47:22)
#loc37 = loc("/mnt/disk1/khiemtt/universal-offline-bbo/torchinductor_ubuntu/ci/ccisb2yra76ab2haychl3vkjloggui7jornx4qodogdjo7v6y64e.py":48:23)
#loc38 = loc("/mnt/disk1/khiemtt/universal-offline-bbo/torchinductor_ubuntu/ci/ccisb2yra76ab2haychl3vkjloggui7jornx4qodogdjo7v6y64e.py":49:35)
#loc39 = loc("/mnt/disk1/khiemtt/universal-offline-bbo/torchinductor_ubuntu/ci/ccisb2yra76ab2haychl3vkjloggui7jornx4qodogdjo7v6y64e.py":50:22)
#loc40 = loc("/mnt/disk1/khiemtt/universal-offline-bbo/torchinductor_ubuntu/ci/ccisb2yra76ab2haychl3vkjloggui7jornx4qodogdjo7v6y64e.py":51:22)
#loc41 = loc("/mnt/disk1/khiemtt/universal-offline-bbo/torchinductor_ubuntu/ci/ccisb2yra76ab2haychl3vkjloggui7jornx4qodogdjo7v6y64e.py":52:40)
#loc42 = loc("/mnt/disk1/khiemtt/universal-offline-bbo/torchinductor_ubuntu/ci/ccisb2yra76ab2haychl3vkjloggui7jornx4qodogdjo7v6y64e.py":52:35)
#loc43 = loc("/mnt/disk1/khiemtt/universal-offline-bbo/torchinductor_ubuntu/ci/ccisb2yra76ab2haychl3vkjloggui7jornx4qodogdjo7v6y64e.py":52:27)
#loc44 = loc("/mnt/disk1/khiemtt/universal-offline-bbo/torchinductor_ubuntu/ci/ccisb2yra76ab2haychl3vkjloggui7jornx4qodogdjo7v6y64e.py":53:34)
#loc45 = loc("/mnt/disk1/khiemtt/universal-offline-bbo/torchinductor_ubuntu/ci/ccisb2yra76ab2haychl3vkjloggui7jornx4qodogdjo7v6y64e.py":54:22)
#loc46 = loc("/mnt/disk1/khiemtt/universal-offline-bbo/torchinductor_ubuntu/ci/ccisb2yra76ab2haychl3vkjloggui7jornx4qodogdjo7v6y64e.py":55:24)
#loc47 = loc("/mnt/disk1/khiemtt/universal-offline-bbo/torchinductor_ubuntu/ci/ccisb2yra76ab2haychl3vkjloggui7jornx4qodogdjo7v6y64e.py":56:16)
#loc48 = loc("/mnt/disk1/khiemtt/universal-offline-bbo/torchinductor_ubuntu/ci/ccisb2yra76ab2haychl3vkjloggui7jornx4qodogdjo7v6y64e.py":57:24)
#loc49 = loc("/mnt/disk1/khiemtt/universal-offline-bbo/torchinductor_ubuntu/ci/ccisb2yra76ab2haychl3vkjloggui7jornx4qodogdjo7v6y64e.py":58:28)
#loc50 = loc("/mnt/disk1/khiemtt/universal-offline-bbo/torchinductor_ubuntu/ci/ccisb2yra76ab2haychl3vkjloggui7jornx4qodogdjo7v6y64e.py":59:16)
#loc51 = loc("/mnt/disk1/khiemtt/universal-offline-bbo/torchinductor_ubuntu/ci/ccisb2yra76ab2haychl3vkjloggui7jornx4qodogdjo7v6y64e.py":60:24)
#loc52 = loc("/mnt/disk1/khiemtt/universal-offline-bbo/torchinductor_ubuntu/ci/ccisb2yra76ab2haychl3vkjloggui7jornx4qodogdjo7v6y64e.py":61:16)
#loc53 = loc("/mnt/disk1/khiemtt/universal-offline-bbo/torchinductor_ubuntu/ci/ccisb2yra76ab2haychl3vkjloggui7jornx4qodogdjo7v6y64e.py":62:24)
#loc54 = loc("/mnt/disk1/khiemtt/universal-offline-bbo/torchinductor_ubuntu/ci/ccisb2yra76ab2haychl3vkjloggui7jornx4qodogdjo7v6y64e.py":63:25)
#loc55 = loc("/mnt/disk1/khiemtt/universal-offline-bbo/torchinductor_ubuntu/ci/ccisb2yra76ab2haychl3vkjloggui7jornx4qodogdjo7v6y64e.py":64:24)
#loc56 = loc("/mnt/disk1/khiemtt/universal-offline-bbo/torchinductor_ubuntu/ci/ccisb2yra76ab2haychl3vkjloggui7jornx4qodogdjo7v6y64e.py":65:36)
#loc57 = loc("/mnt/disk1/khiemtt/universal-offline-bbo/torchinductor_ubuntu/ci/ccisb2yra76ab2haychl3vkjloggui7jornx4qodogdjo7v6y64e.py":66:46)
#loc58 = loc("/mnt/disk1/khiemtt/universal-offline-bbo/torchinductor_ubuntu/ci/ccisb2yra76ab2haychl3vkjloggui7jornx4qodogdjo7v6y64e.py":67:37)
#loc59 = loc("/mnt/disk1/khiemtt/universal-offline-bbo/torchinductor_ubuntu/ci/ccisb2yra76ab2haychl3vkjloggui7jornx4qodogdjo7v6y64e.py":68:23)
#loc60 = loc("/mnt/disk1/khiemtt/universal-offline-bbo/torchinductor_ubuntu/ci/ccisb2yra76ab2haychl3vkjloggui7jornx4qodogdjo7v6y64e.py":69:48)
#loc61 = loc("/mnt/disk1/khiemtt/universal-offline-bbo/torchinductor_ubuntu/ci/ccisb2yra76ab2haychl3vkjloggui7jornx4qodogdjo7v6y64e.py":70:24)
#loc62 = loc("/mnt/disk1/khiemtt/universal-offline-bbo/torchinductor_ubuntu/ci/ccisb2yra76ab2haychl3vkjloggui7jornx4qodogdjo7v6y64e.py":71:24)
#loc63 = loc("/mnt/disk1/khiemtt/universal-offline-bbo/torchinductor_ubuntu/ci/ccisb2yra76ab2haychl3vkjloggui7jornx4qodogdjo7v6y64e.py":72:39)
#loc64 = loc("/mnt/disk1/khiemtt/universal-offline-bbo/torchinductor_ubuntu/ci/ccisb2yra76ab2haychl3vkjloggui7jornx4qodogdjo7v6y64e.py":73:32)
#loc65 = loc("/mnt/disk1/khiemtt/universal-offline-bbo/torchinductor_ubuntu/ci/ccisb2yra76ab2haychl3vkjloggui7jornx4qodogdjo7v6y64e.py":73:50)
#loc66 = loc("/mnt/disk1/khiemtt/universal-offline-bbo/torchinductor_ubuntu/ci/ccisb2yra76ab2haychl3vkjloggui7jornx4qodogdjo7v6y64e.py":73:42)
#loc67 = loc("/mnt/disk1/khiemtt/universal-offline-bbo/torchinductor_ubuntu/ci/ccisb2yra76ab2haychl3vkjloggui7jornx4qodogdjo7v6y64e.py":73:69)
#loc68 = loc("/mnt/disk1/khiemtt/universal-offline-bbo/torchinductor_ubuntu/ci/ccisb2yra76ab2haychl3vkjloggui7jornx4qodogdjo7v6y64e.py":73:59)
#loc69 = loc("/mnt/disk1/khiemtt/universal-offline-bbo/torchinductor_ubuntu/ci/ccisb2yra76ab2haychl3vkjloggui7jornx4qodogdjo7v6y64e.py":73:57)
#loc70 = loc("/mnt/disk1/khiemtt/universal-offline-bbo/torchinductor_ubuntu/ci/ccisb2yra76ab2haychl3vkjloggui7jornx4qodogdjo7v6y64e.py":73:77)
#loc71 = loc("/mnt/disk1/khiemtt/universal-offline-bbo/torchinductor_ubuntu/ci/ccisb2yra76ab2haychl3vkjloggui7jornx4qodogdjo7v6y64e.py":74:42)
#loc72 = loc("/mnt/disk1/khiemtt/universal-offline-bbo/torchinductor_ubuntu/ci/ccisb2yra76ab2haychl3vkjloggui7jornx4qodogdjo7v6y64e.py":74:40)
#loc73 = loc("/mnt/disk1/khiemtt/universal-offline-bbo/torchinductor_ubuntu/ci/ccisb2yra76ab2haychl3vkjloggui7jornx4qodogdjo7v6y64e.py":74:35)
#loc74 = loc("/mnt/disk1/khiemtt/universal-offline-bbo/torchinductor_ubuntu/ci/ccisb2yra76ab2haychl3vkjloggui7jornx4qodogdjo7v6y64e.py":74:60)
#loc75 = loc("/mnt/disk1/khiemtt/universal-offline-bbo/torchinductor_ubuntu/ci/ccisb2yra76ab2haychl3vkjloggui7jornx4qodogdjo7v6y64e.py":74:50)
#loc76 = loc("/mnt/disk1/khiemtt/universal-offline-bbo/torchinductor_ubuntu/ci/ccisb2yra76ab2haychl3vkjloggui7jornx4qodogdjo7v6y64e.py":75:25)
#loc77 = loc("/mnt/disk1/khiemtt/universal-offline-bbo/torchinductor_ubuntu/ci/ccisb2yra76ab2haychl3vkjloggui7jornx4qodogdjo7v6y64e.py":76:16)
#loc78 = loc("/mnt/disk1/khiemtt/universal-offline-bbo/torchinductor_ubuntu/ci/ccisb2yra76ab2haychl3vkjloggui7jornx4qodogdjo7v6y64e.py":77:24)
#loc79 = loc("/mnt/disk1/khiemtt/universal-offline-bbo/torchinductor_ubuntu/ci/ccisb2yra76ab2haychl3vkjloggui7jornx4qodogdjo7v6y64e.py":78:16)
#loc80 = loc("/mnt/disk1/khiemtt/universal-offline-bbo/torchinductor_ubuntu/ci/ccisb2yra76ab2haychl3vkjloggui7jornx4qodogdjo7v6y64e.py":79:24)
#loc81 = loc("/mnt/disk1/khiemtt/universal-offline-bbo/torchinductor_ubuntu/ci/ccisb2yra76ab2haychl3vkjloggui7jornx4qodogdjo7v6y64e.py":80:24)
#loc82 = loc("/mnt/disk1/khiemtt/universal-offline-bbo/torchinductor_ubuntu/ci/ccisb2yra76ab2haychl3vkjloggui7jornx4qodogdjo7v6y64e.py":81:24)
#loc83 = loc("/mnt/disk1/khiemtt/universal-offline-bbo/torchinductor_ubuntu/ci/ccisb2yra76ab2haychl3vkjloggui7jornx4qodogdjo7v6y64e.py":82:16)
#loc84 = loc("/mnt/disk1/khiemtt/universal-offline-bbo/torchinductor_ubuntu/ci/ccisb2yra76ab2haychl3vkjloggui7jornx4qodogdjo7v6y64e.py":83:25)
#loc85 = loc("/mnt/disk1/khiemtt/universal-offline-bbo/torchinductor_ubuntu/ci/ccisb2yra76ab2haychl3vkjloggui7jornx4qodogdjo7v6y64e.py":84:25)
#loc86 = loc("/mnt/disk1/khiemtt/universal-offline-bbo/torchinductor_ubuntu/ci/ccisb2yra76ab2haychl3vkjloggui7jornx4qodogdjo7v6y64e.py":85:25)
#loc87 = loc("/mnt/disk1/khiemtt/universal-offline-bbo/torchinductor_ubuntu/ci/ccisb2yra76ab2haychl3vkjloggui7jornx4qodogdjo7v6y64e.py":86:26)
#loc88 = loc("/mnt/disk1/khiemtt/universal-offline-bbo/torchinductor_ubuntu/ci/ccisb2yra76ab2haychl3vkjloggui7jornx4qodogdjo7v6y64e.py":88:25)
#loc89 = loc("/mnt/disk1/khiemtt/universal-offline-bbo/torchinductor_ubuntu/ci/ccisb2yra76ab2haychl3vkjloggui7jornx4qodogdjo7v6y64e.py":89:36)
#loc90 = loc("/mnt/disk1/khiemtt/universal-offline-bbo/torchinductor_ubuntu/ci/ccisb2yra76ab2haychl3vkjloggui7jornx4qodogdjo7v6y64e.py":89:50)
#loc91 = loc("/mnt/disk1/khiemtt/universal-offline-bbo/torchinductor_ubuntu/ci/ccisb2yra76ab2haychl3vkjloggui7jornx4qodogdjo7v6y64e.py":93:43)
#loc92 = loc("/mnt/disk1/khiemtt/universal-offline-bbo/torchinductor_ubuntu/ci/ccisb2yra76ab2haychl3vkjloggui7jornx4qodogdjo7v6y64e.py":96:40)
#loc93 = loc("/mnt/disk1/khiemtt/universal-offline-bbo/torchinductor_ubuntu/ci/ccisb2yra76ab2haychl3vkjloggui7jornx4qodogdjo7v6y64e.py":96:64)
#loc94 = loc("/mnt/disk1/khiemtt/universal-offline-bbo/torchinductor_ubuntu/ci/ccisb2yra76ab2haychl3vkjloggui7jornx4qodogdjo7v6y64e.py":97:40)
#loc95 = loc("/mnt/disk1/khiemtt/universal-offline-bbo/torchinductor_ubuntu/ci/ccisb2yra76ab2haychl3vkjloggui7jornx4qodogdjo7v6y64e.py":97:64)
#loc96 = loc("/mnt/disk1/khiemtt/universal-offline-bbo/torchinductor_ubuntu/ci/ccisb2yra76ab2haychl3vkjloggui7jornx4qodogdjo7v6y64e.py":98:40)
#loc97 = loc("/mnt/disk1/khiemtt/universal-offline-bbo/torchinductor_ubuntu/ci/ccisb2yra76ab2haychl3vkjloggui7jornx4qodogdjo7v6y64e.py":98:36)
#loc98 = loc("/mnt/disk1/khiemtt/universal-offline-bbo/torchinductor_ubuntu/ci/ccisb2yra76ab2haychl3vkjloggui7jornx4qodogdjo7v6y64e.py":98:52)
#loc99 = loc("/mnt/disk1/khiemtt/universal-offline-bbo/torchinductor_ubuntu/ci/ccisb2yra76ab2haychl3vkjloggui7jornx4qodogdjo7v6y64e.py":98:45)
#loc100 = loc("/mnt/disk1/khiemtt/universal-offline-bbo/torchinductor_ubuntu/ci/ccisb2yra76ab2haychl3vkjloggui7jornx4qodogdjo7v6y64e.py":98:29)
#loc101 = loc("/mnt/disk1/khiemtt/universal-offline-bbo/torchinductor_ubuntu/ci/ccisb2yra76ab2haychl3vkjloggui7jornx4qodogdjo7v6y64e.py":98:74)
#loc102 = loc("/mnt/disk1/khiemtt/universal-offline-bbo/torchinductor_ubuntu/ci/ccisb2yra76ab2haychl3vkjloggui7jornx4qodogdjo7v6y64e.py":98:64)
#loc103 = loc("/mnt/disk1/khiemtt/universal-offline-bbo/torchinductor_ubuntu/ci/ccisb2yra76ab2haychl3vkjloggui7jornx4qodogdjo7v6y64e.py":98:8)
#loc104 = loc("/mnt/disk1/khiemtt/universal-offline-bbo/torchinductor_ubuntu/ci/ccisb2yra76ab2haychl3vkjloggui7jornx4qodogdjo7v6y64e.py":99:41)
#loc105 = loc("/mnt/disk1/khiemtt/universal-offline-bbo/torchinductor_ubuntu/ci/ccisb2yra76ab2haychl3vkjloggui7jornx4qodogdjo7v6y64e.py":99:51)
#loc106 = loc("/mnt/disk1/khiemtt/universal-offline-bbo/torchinductor_ubuntu/ci/ccisb2yra76ab2haychl3vkjloggui7jornx4qodogdjo7v6y64e.py":99:54)
#loc107 = loc("/mnt/disk1/khiemtt/universal-offline-bbo/torchinductor_ubuntu/ci/ccisb2yra76ab2haychl3vkjloggui7jornx4qodogdjo7v6y64e.py":99:66)
#loc108 = loc("/mnt/disk1/khiemtt/universal-offline-bbo/torchinductor_ubuntu/ci/ccisb2yra76ab2haychl3vkjloggui7jornx4qodogdjo7v6y64e.py":102:35)
#loc109 = loc("/mnt/disk1/khiemtt/universal-offline-bbo/torchinductor_ubuntu/ci/ccisb2yra76ab2haychl3vkjloggui7jornx4qodogdjo7v6y64e.py":103:18)
#loc110 = loc("/mnt/disk1/khiemtt/universal-offline-bbo/torchinductor_ubuntu/ci/ccisb2yra76ab2haychl3vkjloggui7jornx4qodogdjo7v6y64e.py":104:18)
#loc111 = loc("/mnt/disk1/khiemtt/universal-offline-bbo/torchinductor_ubuntu/ci/ccisb2yra76ab2haychl3vkjloggui7jornx4qodogdjo7v6y64e.py":107:40)
#loc112 = loc("/mnt/disk1/khiemtt/universal-offline-bbo/torchinductor_ubuntu/ci/ccisb2yra76ab2haychl3vkjloggui7jornx4qodogdjo7v6y64e.py":108:31)
#loc113 = loc("/mnt/disk1/khiemtt/universal-offline-bbo/torchinductor_ubuntu/ci/ccisb2yra76ab2haychl3vkjloggui7jornx4qodogdjo7v6y64e.py":109:29)
#loc114 = loc("/mnt/disk1/khiemtt/universal-offline-bbo/torchinductor_ubuntu/ci/ccisb2yra76ab2haychl3vkjloggui7jornx4qodogdjo7v6y64e.py":113:46)
#loc115 = loc("/mnt/disk1/khiemtt/universal-offline-bbo/torchinductor_ubuntu/ci/ccisb2yra76ab2haychl3vkjloggui7jornx4qodogdjo7v6y64e.py":113:42)
#loc116 = loc("/mnt/disk1/khiemtt/universal-offline-bbo/torchinductor_ubuntu/ci/ccisb2yra76ab2haychl3vkjloggui7jornx4qodogdjo7v6y64e.py":113:35)
#loc117 = loc("/mnt/disk1/khiemtt/universal-offline-bbo/torchinductor_ubuntu/ci/ccisb2yra76ab2haychl3vkjloggui7jornx4qodogdjo7v6y64e.py":113:61)
#loc118 = loc("/mnt/disk1/khiemtt/universal-offline-bbo/torchinductor_ubuntu/ci/ccisb2yra76ab2haychl3vkjloggui7jornx4qodogdjo7v6y64e.py":113:51)
#loc119 = loc("/mnt/disk1/khiemtt/universal-offline-bbo/torchinductor_ubuntu/ci/ccisb2yra76ab2haychl3vkjloggui7jornx4qodogdjo7v6y64e.py":114:47)
#loc120 = loc("/mnt/disk1/khiemtt/universal-offline-bbo/torchinductor_ubuntu/ci/ccisb2yra76ab2haychl3vkjloggui7jornx4qodogdjo7v6y64e.py":114:43)
#loc121 = loc("/mnt/disk1/khiemtt/universal-offline-bbo/torchinductor_ubuntu/ci/ccisb2yra76ab2haychl3vkjloggui7jornx4qodogdjo7v6y64e.py":114:59)
#loc122 = loc("/mnt/disk1/khiemtt/universal-offline-bbo/torchinductor_ubuntu/ci/ccisb2yra76ab2haychl3vkjloggui7jornx4qodogdjo7v6y64e.py":114:52)
#loc123 = loc("/mnt/disk1/khiemtt/universal-offline-bbo/torchinductor_ubuntu/ci/ccisb2yra76ab2haychl3vkjloggui7jornx4qodogdjo7v6y64e.py":114:36)
#loc124 = loc("/mnt/disk1/khiemtt/universal-offline-bbo/torchinductor_ubuntu/ci/ccisb2yra76ab2haychl3vkjloggui7jornx4qodogdjo7v6y64e.py":114:74)
#loc125 = loc("/mnt/disk1/khiemtt/universal-offline-bbo/torchinductor_ubuntu/ci/ccisb2yra76ab2haychl3vkjloggui7jornx4qodogdjo7v6y64e.py":114:64)
#loc126 = loc("/mnt/disk1/khiemtt/universal-offline-bbo/torchinductor_ubuntu/ci/ccisb2yra76ab2haychl3vkjloggui7jornx4qodogdjo7v6y64e.py":115:25)
#loc127 = loc("/mnt/disk1/khiemtt/universal-offline-bbo/torchinductor_ubuntu/ci/ccisb2yra76ab2haychl3vkjloggui7jornx4qodogdjo7v6y64e.py":116:24)
#loc128 = loc("/mnt/disk1/khiemtt/universal-offline-bbo/torchinductor_ubuntu/ci/ccisb2yra76ab2haychl3vkjloggui7jornx4qodogdjo7v6y64e.py":117:24)
#loc129 = loc("/mnt/disk1/khiemtt/universal-offline-bbo/torchinductor_ubuntu/ci/ccisb2yra76ab2haychl3vkjloggui7jornx4qodogdjo7v6y64e.py":118:28)
#loc130 = loc("/mnt/disk1/khiemtt/universal-offline-bbo/torchinductor_ubuntu/ci/ccisb2yra76ab2haychl3vkjloggui7jornx4qodogdjo7v6y64e.py":119:25)
#loc131 = loc("/mnt/disk1/khiemtt/universal-offline-bbo/torchinductor_ubuntu/ci/ccisb2yra76ab2haychl3vkjloggui7jornx4qodogdjo7v6y64e.py":120:16)
#loc132 = loc("/mnt/disk1/khiemtt/universal-offline-bbo/torchinductor_ubuntu/ci/ccisb2yra76ab2haychl3vkjloggui7jornx4qodogdjo7v6y64e.py":121:39)
#loc133 = loc("/mnt/disk1/khiemtt/universal-offline-bbo/torchinductor_ubuntu/ci/ccisb2yra76ab2haychl3vkjloggui7jornx4qodogdjo7v6y64e.py":122:40)
#loc134 = loc("/mnt/disk1/khiemtt/universal-offline-bbo/torchinductor_ubuntu/ci/ccisb2yra76ab2haychl3vkjloggui7jornx4qodogdjo7v6y64e.py":122:36)
#loc135 = loc("/mnt/disk1/khiemtt/universal-offline-bbo/torchinductor_ubuntu/ci/ccisb2yra76ab2haychl3vkjloggui7jornx4qodogdjo7v6y64e.py":122:52)
#loc136 = loc("/mnt/disk1/khiemtt/universal-offline-bbo/torchinductor_ubuntu/ci/ccisb2yra76ab2haychl3vkjloggui7jornx4qodogdjo7v6y64e.py":122:45)
#loc137 = loc("/mnt/disk1/khiemtt/universal-offline-bbo/torchinductor_ubuntu/ci/ccisb2yra76ab2haychl3vkjloggui7jornx4qodogdjo7v6y64e.py":122:29)
#loc138 = loc("/mnt/disk1/khiemtt/universal-offline-bbo/torchinductor_ubuntu/ci/ccisb2yra76ab2haychl3vkjloggui7jornx4qodogdjo7v6y64e.py":122:74)
#loc139 = loc("/mnt/disk1/khiemtt/universal-offline-bbo/torchinductor_ubuntu/ci/ccisb2yra76ab2haychl3vkjloggui7jornx4qodogdjo7v6y64e.py":122:64)
#loc140 = loc("/mnt/disk1/khiemtt/universal-offline-bbo/torchinductor_ubuntu/ci/ccisb2yra76ab2haychl3vkjloggui7jornx4qodogdjo7v6y64e.py":107:4)
#loc141 = loc("/mnt/disk1/anaconda3/envs/pqhung/lib/python3.9/site-packages/triton/language/standard.py":117:0)
#loc142 = loc("/mnt/disk1/anaconda3/envs/pqhung/lib/python3.9/site-packages/triton/language/standard.py":126:31)
#loc143 = loc("/mnt/disk1/anaconda3/envs/pqhung/lib/python3.9/site-packages/triton/language/standard.py":126:11)
#loc144 = loc("/mnt/disk1/anaconda3/envs/pqhung/lib/python3.9/site-packages/triton/language/standard.py":126:4)
#loc146 = loc("/mnt/disk1/anaconda3/envs/pqhung/lib/python3.9/site-packages/torch/_inductor/runtime/triton_helpers.py":103:15)
#loc147 = loc("/mnt/disk1/anaconda3/envs/pqhung/lib/python3.9/site-packages/torch/_inductor/runtime/triton_helpers.py":104:19)
#loc148 = loc("/mnt/disk1/anaconda3/envs/pqhung/lib/python3.9/site-packages/torch/_inductor/runtime/triton_helpers.py":104:7)
#loc149 = loc("/mnt/disk1/anaconda3/envs/pqhung/lib/python3.9/site-packages/torch/_inductor/runtime/triton_helpers.py":105:21)
#loc150 = loc("/mnt/disk1/anaconda3/envs/pqhung/lib/python3.9/site-packages/torch/_inductor/runtime/triton_helpers.py":105:16)
#loc152 = loc("/mnt/disk1/anaconda3/envs/pqhung/lib/python3.9/site-packages/torch/_inductor/runtime/triton_helpers.py":106:29)
#loc153 = loc("/mnt/disk1/anaconda3/envs/pqhung/lib/python3.9/site-packages/torch/_inductor/runtime/triton_helpers.py":106:11)
#loc154 = loc("/mnt/disk1/anaconda3/envs/pqhung/lib/python3.9/site-packages/torch/_inductor/runtime/triton_helpers.py":106:4)
#loc156 = loc("/mnt/disk1/anaconda3/envs/pqhung/lib/python3.9/site-packages/torch/_inductor/runtime/triton_helpers.py":88:29)
#loc157 = loc("/mnt/disk1/anaconda3/envs/pqhung/lib/python3.9/site-packages/torch/_inductor/runtime/triton_helpers.py":88:11)
#loc158 = loc("/mnt/disk1/anaconda3/envs/pqhung/lib/python3.9/site-packages/torch/_inductor/runtime/triton_helpers.py":88:4)
#loc160 = loc("/mnt/disk1/anaconda3/envs/pqhung/lib/python3.9/site-packages/torch/_inductor/runtime/triton_helpers.py":66:30)
#loc161 = loc("/mnt/disk1/anaconda3/envs/pqhung/lib/python3.9/site-packages/torch/_inductor/runtime/triton_helpers.py":66:15)
#loc162 = loc("/mnt/disk1/anaconda3/envs/pqhung/lib/python3.9/site-packages/torch/_inductor/runtime/triton_helpers.py":66:11)
#loc163 = loc("/mnt/disk1/anaconda3/envs/pqhung/lib/python3.9/site-packages/torch/_inductor/runtime/triton_helpers.py":66:4)
#loc165 = loc("/mnt/disk1/anaconda3/envs/pqhung/lib/python3.9/site-packages/torch/_inductor/runtime/triton_helpers.py":194:31)
#loc166 = loc("/mnt/disk1/anaconda3/envs/pqhung/lib/python3.9/site-packages/torch/_inductor/runtime/triton_helpers.py":197:19)
#loc167 = loc("/mnt/disk1/anaconda3/envs/pqhung/lib/python3.9/site-packages/torch/_inductor/runtime/triton_helpers.py":197:53)
#loc168 = loc("/mnt/disk1/anaconda3/envs/pqhung/lib/python3.9/site-packages/torch/_inductor/runtime/triton_helpers.py":197:62)
#loc169 = loc("/mnt/disk1/anaconda3/envs/pqhung/lib/python3.9/site-packages/torch/_inductor/runtime/triton_helpers.py":197:39)
#loc170 = loc("/mnt/disk1/anaconda3/envs/pqhung/lib/python3.9/site-packages/torch/_inductor/runtime/triton_helpers.py":200:19)
#loc171 = loc("/mnt/disk1/anaconda3/envs/pqhung/lib/python3.9/site-packages/torch/_inductor/runtime/triton_helpers.py":200:53)
#loc172 = loc("/mnt/disk1/anaconda3/envs/pqhung/lib/python3.9/site-packages/torch/_inductor/runtime/triton_helpers.py":200:62)
#loc173 = loc("/mnt/disk1/anaconda3/envs/pqhung/lib/python3.9/site-packages/torch/_inductor/runtime/triton_helpers.py":200:39)
#loc174 = loc("/mnt/disk1/anaconda3/envs/pqhung/lib/python3.9/site-packages/torch/_inductor/runtime/triton_helpers.py":206:24)
#loc175 = loc("/mnt/disk1/anaconda3/envs/pqhung/lib/python3.9/site-packages/torch/_inductor/runtime/triton_helpers.py":206:36)
#loc176 = loc("/mnt/disk1/anaconda3/envs/pqhung/lib/python3.9/site-packages/torch/_inductor/runtime/triton_helpers.py":207:11)
#loc177 = loc("/mnt/disk1/anaconda3/envs/pqhung/lib/python3.9/site-packages/torch/_inductor/runtime/triton_helpers.py":207:4)
#loc179 = loc("/mnt/disk1/anaconda3/envs/pqhung/lib/python3.9/site-packages/torch/_inductor/runtime/triton_helpers.py":111:15)
#loc180 = loc("/mnt/disk1/anaconda3/envs/pqhung/lib/python3.9/site-packages/torch/_inductor/runtime/triton_helpers.py":112:19)
#loc181 = loc("/mnt/disk1/anaconda3/envs/pqhung/lib/python3.9/site-packages/torch/_inductor/runtime/triton_helpers.py":112:7)
#loc182 = loc("/mnt/disk1/anaconda3/envs/pqhung/lib/python3.9/site-packages/torch/_inductor/runtime/triton_helpers.py":113:21)
#loc183 = loc("/mnt/disk1/anaconda3/envs/pqhung/lib/python3.9/site-packages/torch/_inductor/runtime/triton_helpers.py":113:16)
#loc184 = loc("/mnt/disk1/anaconda3/envs/pqhung/lib/python3.9/site-packages/torch/_inductor/runtime/triton_helpers.py":114:29)
#loc185 = loc("/mnt/disk1/anaconda3/envs/pqhung/lib/python3.9/site-packages/torch/_inductor/runtime/triton_helpers.py":114:11)
#loc186 = loc("/mnt/disk1/anaconda3/envs/pqhung/lib/python3.9/site-packages/torch/_inductor/runtime/triton_helpers.py":114:4)
#loc188 = loc("/mnt/disk1/anaconda3/envs/pqhung/lib/python3.9/site-packages/torch/_inductor/runtime/triton_helpers.py":174:24)
#loc189 = loc("/mnt/disk1/anaconda3/envs/pqhung/lib/python3.9/site-packages/torch/_inductor/runtime/triton_helpers.py":174:15)
#loc190 = loc("/mnt/disk1/anaconda3/envs/pqhung/lib/python3.9/site-packages/torch/_inductor/runtime/triton_helpers.py":171:4)
#loc192 = loc("/mnt/disk1/anaconda3/envs/pqhung/lib/python3.9/site-packages/torch/_inductor/runtime/triton_helpers.py":266:29)
#loc193 = loc("/mnt/disk1/anaconda3/envs/pqhung/lib/python3.9/site-packages/torch/_inductor/runtime/triton_helpers.py":266:11)
#loc194 = loc("/mnt/disk1/anaconda3/envs/pqhung/lib/python3.9/site-packages/torch/_inductor/runtime/triton_helpers.py":266:4)
#loc196 = loc("/mnt/disk1/anaconda3/envs/pqhung/lib/python3.9/site-packages/torch/_inductor/runtime/triton_helpers.py":261:15)
#loc197 = loc("/mnt/disk1/anaconda3/envs/pqhung/lib/python3.9/site-packages/torch/_inductor/runtime/triton_helpers.py":261:11)
#loc198 = loc("/mnt/disk1/anaconda3/envs/pqhung/lib/python3.9/site-packages/torch/_inductor/runtime/triton_helpers.py":261:4)
#loc200 = loc("/mnt/disk1/anaconda3/envs/pqhung/lib/python3.9/site-packages/torch/_inductor/runtime/triton_helpers.py":179:28)
#loc201 = loc("/mnt/disk1/anaconda3/envs/pqhung/lib/python3.9/site-packages/torch/_inductor/runtime/triton_helpers.py":180:30)
#loc202 = loc("/mnt/disk1/anaconda3/envs/pqhung/lib/python3.9/site-packages/torch/_inductor/runtime/triton_helpers.py":181:40)
#loc203 = loc("/mnt/disk1/anaconda3/envs/pqhung/lib/python3.9/site-packages/torch/_inductor/runtime/triton_helpers.py":181:68)
#loc204 = loc("/mnt/disk1/anaconda3/envs/pqhung/lib/python3.9/site-packages/torch/_inductor/runtime/triton_helpers.py":181:58)
#loc205 = loc("/mnt/disk1/anaconda3/envs/pqhung/lib/python3.9/site-packages/torch/_inductor/runtime/triton_helpers.py":182:42)
#loc206 = loc("/mnt/disk1/anaconda3/envs/pqhung/lib/python3.9/site-packages/torch/_inductor/runtime/triton_helpers.py":182:31)
#loc207 = loc("/mnt/disk1/anaconda3/envs/pqhung/lib/python3.9/site-packages/torch/_inductor/runtime/triton_helpers.py":182:58)
#loc208 = loc("/mnt/disk1/anaconda3/envs/pqhung/lib/python3.9/site-packages/torch/_inductor/runtime/triton_helpers.py":183:11)
#loc209 = loc("/mnt/disk1/anaconda3/envs/pqhung/lib/python3.9/site-packages/torch/_inductor/runtime/triton_helpers.py":183:4)
#loc211 = loc("/mnt/disk1/anaconda3/envs/pqhung/lib/python3.9/site-packages/torch/_inductor/runtime/triton_helpers.py":124:29)
#loc212 = loc("/mnt/disk1/anaconda3/envs/pqhung/lib/python3.9/site-packages/torch/_inductor/runtime/triton_helpers.py":124:11)
#loc213 = loc("/mnt/disk1/anaconda3/envs/pqhung/lib/python3.9/site-packages/torch/_inductor/runtime/triton_helpers.py":124:4)
#loc215 = loc("/mnt/disk1/anaconda3/envs/pqhung/lib/python3.9/site-packages/triton/language/standard.py":290:36)
#loc216 = loc("/mnt/disk1/anaconda3/envs/pqhung/lib/python3.9/site-packages/triton/language/standard.py":290:11)
#loc217 = loc("/mnt/disk1/anaconda3/envs/pqhung/lib/python3.9/site-packages/triton/language/standard.py":290:4)
#loc219 = loc("/mnt/disk1/anaconda3/envs/pqhung/lib/python3.9/site-packages/triton/language/standard.py":260:15)
#loc220 = loc("/mnt/disk1/anaconda3/envs/pqhung/lib/python3.9/site-packages/triton/language/standard.py":260:11)
#loc221 = loc("/mnt/disk1/anaconda3/envs/pqhung/lib/python3.9/site-packages/triton/language/standard.py":260:4)
