#loc = loc("/mnt/disk1/khiemtt/universal-offline-bbo/torchinductor_ubuntu/n6/cn64ooodypc2sqdcjoreugxb2bxlaoas7xzwknk5tv27weteroqm.py":18:0)
#loc1 = loc(unknown)
#loc24 = loc("/mnt/disk1/khiemtt/universal-offline-bbo/torchinductor_ubuntu/n6/cn64ooodypc2sqdcjoreugxb2bxlaoas7xzwknk5tv27weteroqm.py":47:59)
#loc39 = loc(callsite(#loc1 at #loc24))
module {
  tt.func public @triton_per_fused_add_mean_mul_pow_rsqrt_7(%arg0: !tt.ptr<f32> {tt.divisibility = 16 : i32} loc("/mnt/disk1/khiemtt/universal-offline-bbo/torchinductor_ubuntu/n6/cn64ooodypc2sqdcjoreugxb2bxlaoas7xzwknk5tv27weteroqm.py":18:0), %arg1: !tt.ptr<f32> {tt.divisibility = 16 : i32} loc("/mnt/disk1/khiemtt/universal-offline-bbo/torchinductor_ubuntu/n6/cn64ooodypc2sqdcjoreugxb2bxlaoas7xzwknk5tv27weteroqm.py":18:0), %arg2: !tt.ptr<f32> {tt.divisibility = 16 : i32} loc("/mnt/disk1/khiemtt/universal-offline-bbo/torchinductor_ubuntu/n6/cn64ooodypc2sqdcjoreugxb2bxlaoas7xzwknk5tv27weteroqm.py":18:0), %arg3: !tt.ptr<f32> {tt.divisibility = 16 : i32} loc("/mnt/disk1/khiemtt/universal-offline-bbo/torchinductor_ubuntu/n6/cn64ooodypc2sqdcjoreugxb2bxlaoas7xzwknk5tv27weteroqm.py":18:0), %arg4: !tt.ptr<f32> {tt.divisibility = 16 : i32} loc("/mnt/disk1/khiemtt/universal-offline-bbo/torchinductor_ubuntu/n6/cn64ooodypc2sqdcjoreugxb2bxlaoas7xzwknk5tv27weteroqm.py":18:0), %arg5: !tt.ptr<f32> {tt.divisibility = 16 : i32} loc("/mnt/disk1/khiemtt/universal-offline-bbo/torchinductor_ubuntu/n6/cn64ooodypc2sqdcjoreugxb2bxlaoas7xzwknk5tv27weteroqm.py":18:0), %arg6: !tt.ptr<f32> {tt.divisibility = 16 : i32} loc("/mnt/disk1/khiemtt/universal-offline-bbo/torchinductor_ubuntu/n6/cn64ooodypc2sqdcjoreugxb2bxlaoas7xzwknk5tv27weteroqm.py":18:0), %arg7: i32 {tt.divisibility = 16 : i32} loc("/mnt/disk1/khiemtt/universal-offline-bbo/torchinductor_ubuntu/n6/cn64ooodypc2sqdcjoreugxb2bxlaoas7xzwknk5tv27weteroqm.py":18:0), %arg8: i32 {tt.divisibility = 16 : i32} loc("/mnt/disk1/khiemtt/universal-offline-bbo/torchinductor_ubuntu/n6/cn64ooodypc2sqdcjoreugxb2bxlaoas7xzwknk5tv27weteroqm.py":18:0)) attributes {noinline = false} {
    %cst = arith.constant 9.99999997E-7 : f32 loc(#loc1)
    %cst_0 = arith.constant 5.120000e+02 : f32 loc(#loc1)
    %cst_1 = arith.constant 0.000000e+00 : f32 loc(#loc1)
    %c512_i32 = arith.constant 512 : i32 loc(#loc1)
    %0 = tt.get_program_id x : i32 loc(#loc2)
    %1 = tt.make_range {end = 512 : i32, start = 0 : i32} : tensor<512xi32> loc(#loc3)
    %2 = arith.muli %0, %c512_i32 : i32 loc(#loc4)
    %3 = tt.splat %2 : i32 -> tensor<512xi32> loc(#loc37)
    %4 = arith.addi %1, %3 : tensor<512xi32> loc(#loc5)
    %5 = tt.splat %arg1 : !tt.ptr<f32> -> tensor<512x!tt.ptr<f32>> loc(#loc6)
    %6 = tt.addptr %5, %4 : tensor<512x!tt.ptr<f32>>, tensor<512xi32> loc(#loc6)
    %7 = tt.load %6 : tensor<512x!tt.ptr<f32>> loc(#loc7)
    %8 = tt.splat %arg0 : !tt.ptr<f32> -> tensor<512x!tt.ptr<f32>> loc(#loc8)
    %9 = tt.addptr %8, %4 : tensor<512x!tt.ptr<f32>>, tensor<512xi32> loc(#loc8)
    %10 = tt.load %9 : tensor<512x!tt.ptr<f32>> loc(#loc9)
    %11 = tt.splat %arg2 : !tt.ptr<f32> -> tensor<512x!tt.ptr<f32>> loc(#loc10)
    %12 = tt.addptr %11, %4 : tensor<512x!tt.ptr<f32>>, tensor<512xi32> loc(#loc10)
    %13 = tt.load %12 : tensor<512x!tt.ptr<f32>> loc(#loc11)
    %14 = tt.splat %arg3 : !tt.ptr<f32> -> tensor<512x!tt.ptr<f32>> loc(#loc12)
    %15 = tt.addptr %14, %4 : tensor<512x!tt.ptr<f32>>, tensor<512xi32> loc(#loc12)
    %16 = tt.load %15 : tensor<512x!tt.ptr<f32>> loc(#loc13)
    %17 = tt.splat %arg4 : !tt.ptr<f32> -> tensor<512x!tt.ptr<f32>> loc(#loc14)
    %18 = tt.addptr %17, %4 : tensor<512x!tt.ptr<f32>>, tensor<512xi32> loc(#loc14)
    %19 = tt.load %18 : tensor<512x!tt.ptr<f32>> loc(#loc15)
    %20 = tt.splat %arg5 : !tt.ptr<f32> -> tensor<512x!tt.ptr<f32>> loc(#loc16)
    %21 = tt.addptr %20, %1 : tensor<512x!tt.ptr<f32>>, tensor<512xi32> loc(#loc16)
    %22 = tt.load %21 evictionPolicy = evict_last : tensor<512x!tt.ptr<f32>> loc(#loc17)
    %23 = arith.addf %7, %10 : tensor<512xf32> loc(#loc18)
    %24 = arith.addf %23, %13 : tensor<512xf32> loc(#loc19)
    %25 = arith.addf %24, %16 : tensor<512xf32> loc(#loc20)
    %26 = arith.addf %25, %19 : tensor<512xf32> loc(#loc21)
    %27 = arith.mulf %26, %26 : tensor<512xf32> loc(#loc22)
    %28 = "tt.reduce"(%27) <{axis = 0 : i32}> ({
    ^bb0(%arg9: f32 loc(callsite(#loc1 at #loc24)), %arg10: f32 loc(callsite(#loc1 at #loc24))):
      %38 = arith.addf %arg9, %arg10 : f32 loc(#loc42)
      tt.reduce.return %38 : f32 loc(#loc38)
    }) : (tensor<512xf32>) -> f32 loc(#loc38)
    %29 = arith.addf %28, %cst_1 : f32 loc(#loc40)
    %30 = arith.divf %29, %cst_0 : f32 loc(#loc28)
    %31 = arith.addf %30, %cst : f32 loc(#loc29)
    %32 = tt.extern_elementwise %31 {libname = "", libpath = "", pure = true, symbol = "__nv_rsqrtf"} : (f32) -> f32 loc(#loc30)
    %33 = tt.splat %32 : f32 -> tensor<512xf32> loc(#loc41)
    %34 = arith.mulf %26, %33 : tensor<512xf32> loc(#loc31)
    %35 = arith.mulf %22, %34 : tensor<512xf32> loc(#loc32)
    tt.store %9, %26 : tensor<512x!tt.ptr<f32>> loc(#loc33)
    %36 = tt.splat %arg6 : !tt.ptr<f32> -> tensor<512x!tt.ptr<f32>> loc(#loc34)
    %37 = tt.addptr %36, %4 : tensor<512x!tt.ptr<f32>>, tensor<512xi32> loc(#loc34)
    tt.store %37, %35 : tensor<512x!tt.ptr<f32>> loc(#loc35)
    tt.return loc(#loc36)
  } loc(#loc)
} loc(#loc)
#loc2 = loc("/mnt/disk1/khiemtt/universal-offline-bbo/torchinductor_ubuntu/n6/cn64ooodypc2sqdcjoreugxb2bxlaoas7xzwknk5tv27weteroqm.py":25:28)
#loc3 = loc("/mnt/disk1/khiemtt/universal-offline-bbo/torchinductor_ubuntu/n6/cn64ooodypc2sqdcjoreugxb2bxlaoas7xzwknk5tv27weteroqm.py":28:28)
#loc4 = loc("/mnt/disk1/khiemtt/universal-offline-bbo/torchinductor_ubuntu/n6/cn64ooodypc2sqdcjoreugxb2bxlaoas7xzwknk5tv27weteroqm.py":35:41)
#loc5 = loc("/mnt/disk1/khiemtt/universal-offline-bbo/torchinductor_ubuntu/n6/cn64ooodypc2sqdcjoreugxb2bxlaoas7xzwknk5tv27weteroqm.py":35:37)
#loc6 = loc("/mnt/disk1/khiemtt/universal-offline-bbo/torchinductor_ubuntu/n6/cn64ooodypc2sqdcjoreugxb2bxlaoas7xzwknk5tv27weteroqm.py":35:30)
#loc7 = loc("/mnt/disk1/khiemtt/universal-offline-bbo/torchinductor_ubuntu/n6/cn64ooodypc2sqdcjoreugxb2bxlaoas7xzwknk5tv27weteroqm.py":35:46)
#loc8 = loc("/mnt/disk1/khiemtt/universal-offline-bbo/torchinductor_ubuntu/n6/cn64ooodypc2sqdcjoreugxb2bxlaoas7xzwknk5tv27weteroqm.py":36:34)
#loc9 = loc("/mnt/disk1/khiemtt/universal-offline-bbo/torchinductor_ubuntu/n6/cn64ooodypc2sqdcjoreugxb2bxlaoas7xzwknk5tv27weteroqm.py":36:50)
#loc10 = loc("/mnt/disk1/khiemtt/universal-offline-bbo/torchinductor_ubuntu/n6/cn64ooodypc2sqdcjoreugxb2bxlaoas7xzwknk5tv27weteroqm.py":37:30)
#loc11 = loc("/mnt/disk1/khiemtt/universal-offline-bbo/torchinductor_ubuntu/n6/cn64ooodypc2sqdcjoreugxb2bxlaoas7xzwknk5tv27weteroqm.py":37:46)
#loc12 = loc("/mnt/disk1/khiemtt/universal-offline-bbo/torchinductor_ubuntu/n6/cn64ooodypc2sqdcjoreugxb2bxlaoas7xzwknk5tv27weteroqm.py":38:30)
#loc13 = loc("/mnt/disk1/khiemtt/universal-offline-bbo/torchinductor_ubuntu/n6/cn64ooodypc2sqdcjoreugxb2bxlaoas7xzwknk5tv27weteroqm.py":38:46)
#loc14 = loc("/mnt/disk1/khiemtt/universal-offline-bbo/torchinductor_ubuntu/n6/cn64ooodypc2sqdcjoreugxb2bxlaoas7xzwknk5tv27weteroqm.py":39:30)
#loc15 = loc("/mnt/disk1/khiemtt/universal-offline-bbo/torchinductor_ubuntu/n6/cn64ooodypc2sqdcjoreugxb2bxlaoas7xzwknk5tv27weteroqm.py":39:46)
#loc16 = loc("/mnt/disk1/khiemtt/universal-offline-bbo/torchinductor_ubuntu/n6/cn64ooodypc2sqdcjoreugxb2bxlaoas7xzwknk5tv27weteroqm.py":40:31)
#loc17 = loc("/mnt/disk1/khiemtt/universal-offline-bbo/torchinductor_ubuntu/n6/cn64ooodypc2sqdcjoreugxb2bxlaoas7xzwknk5tv27weteroqm.py":40:38)
#loc18 = loc("/mnt/disk1/khiemtt/universal-offline-bbo/torchinductor_ubuntu/n6/cn64ooodypc2sqdcjoreugxb2bxlaoas7xzwknk5tv27weteroqm.py":41:18)
#loc19 = loc("/mnt/disk1/khiemtt/universal-offline-bbo/torchinductor_ubuntu/n6/cn64ooodypc2sqdcjoreugxb2bxlaoas7xzwknk5tv27weteroqm.py":42:18)
#loc20 = loc("/mnt/disk1/khiemtt/universal-offline-bbo/torchinductor_ubuntu/n6/cn64ooodypc2sqdcjoreugxb2bxlaoas7xzwknk5tv27weteroqm.py":43:18)
#loc21 = loc("/mnt/disk1/khiemtt/universal-offline-bbo/torchinductor_ubuntu/n6/cn64ooodypc2sqdcjoreugxb2bxlaoas7xzwknk5tv27weteroqm.py":44:18)
#loc22 = loc("/mnt/disk1/khiemtt/universal-offline-bbo/torchinductor_ubuntu/n6/cn64ooodypc2sqdcjoreugxb2bxlaoas7xzwknk5tv27weteroqm.py":45:18)
#loc23 = loc("/mnt/disk1/anaconda3/envs/pqhung/lib/python3.9/site-packages/triton/language/standard.py":290:36)
#loc25 = loc("/mnt/disk1/anaconda3/envs/pqhung/lib/python3.9/site-packages/triton/language/standard.py":260:15)
#loc26 = loc("/mnt/disk1/anaconda3/envs/pqhung/lib/python3.9/site-packages/torch/_inductor/runtime/triton_helpers.py":66:15)
#loc27 = loc("/mnt/disk1/khiemtt/universal-offline-bbo/torchinductor_ubuntu/n6/cn64ooodypc2sqdcjoreugxb2bxlaoas7xzwknk5tv27weteroqm.py":47:45)
#loc28 = loc("/mnt/disk1/khiemtt/universal-offline-bbo/torchinductor_ubuntu/n6/cn64ooodypc2sqdcjoreugxb2bxlaoas7xzwknk5tv27weteroqm.py":49:21)
#loc29 = loc("/mnt/disk1/khiemtt/universal-offline-bbo/torchinductor_ubuntu/n6/cn64ooodypc2sqdcjoreugxb2bxlaoas7xzwknk5tv27weteroqm.py":51:20)
#loc30 = loc("/mnt/disk1/khiemtt/universal-offline-bbo/torchinductor_ubuntu/n6/cn64ooodypc2sqdcjoreugxb2bxlaoas7xzwknk5tv27weteroqm.py":52:28)
#loc31 = loc("/mnt/disk1/khiemtt/universal-offline-bbo/torchinductor_ubuntu/n6/cn64ooodypc2sqdcjoreugxb2bxlaoas7xzwknk5tv27weteroqm.py":53:19)
#loc32 = loc("/mnt/disk1/khiemtt/universal-offline-bbo/torchinductor_ubuntu/n6/cn64ooodypc2sqdcjoreugxb2bxlaoas7xzwknk5tv27weteroqm.py":54:20)
#loc33 = loc("/mnt/disk1/khiemtt/universal-offline-bbo/torchinductor_ubuntu/n6/cn64ooodypc2sqdcjoreugxb2bxlaoas7xzwknk5tv27weteroqm.py":55:50)
#loc34 = loc("/mnt/disk1/khiemtt/universal-offline-bbo/torchinductor_ubuntu/n6/cn64ooodypc2sqdcjoreugxb2bxlaoas7xzwknk5tv27weteroqm.py":56:25)
#loc35 = loc("/mnt/disk1/khiemtt/universal-offline-bbo/torchinductor_ubuntu/n6/cn64ooodypc2sqdcjoreugxb2bxlaoas7xzwknk5tv27weteroqm.py":56:48)
#loc36 = loc("/mnt/disk1/khiemtt/universal-offline-bbo/torchinductor_ubuntu/n6/cn64ooodypc2sqdcjoreugxb2bxlaoas7xzwknk5tv27weteroqm.py":56:4)
#loc37 = loc(fused[#loc5, #loc4])
#loc38 = loc(callsite(#loc23 at #loc24))
#loc40 = loc(callsite(#loc26 at #loc27))
#loc41 = loc(fused[#loc31, #loc30])
#loc42 = loc(callsite(#loc25 at #loc38))
