#loc = loc("/mnt/disk1/khiemtt/universal-offline-bbo/torchinductor_ubuntu/m6/cm6ncetewmgk5qsolkak7uceryayez6utaznewcxtvw3qmueefb4.py":18:0)
#loc1 = loc(unknown)
#loc18 = loc("/mnt/disk1/khiemtt/universal-offline-bbo/torchinductor_ubuntu/m6/cm6ncetewmgk5qsolkak7uceryayez6utaznewcxtvw3qmueefb4.py":43:57)
#loc32 = loc(callsite(#loc1 at #loc18))
module {
  tt.func public @triton_per_fused_add_mean_mul_pow_rsqrt_2(%arg0: !tt.ptr<f32> {tt.divisibility = 16 : i32} loc("/mnt/disk1/khiemtt/universal-offline-bbo/torchinductor_ubuntu/m6/cm6ncetewmgk5qsolkak7uceryayez6utaznewcxtvw3qmueefb4.py":18:0), %arg1: !tt.ptr<f32> {tt.divisibility = 16 : i32} loc("/mnt/disk1/khiemtt/universal-offline-bbo/torchinductor_ubuntu/m6/cm6ncetewmgk5qsolkak7uceryayez6utaznewcxtvw3qmueefb4.py":18:0), %arg2: !tt.ptr<f32> {tt.divisibility = 16 : i32} loc("/mnt/disk1/khiemtt/universal-offline-bbo/torchinductor_ubuntu/m6/cm6ncetewmgk5qsolkak7uceryayez6utaznewcxtvw3qmueefb4.py":18:0), %arg3: !tt.ptr<f32> {tt.divisibility = 16 : i32} loc("/mnt/disk1/khiemtt/universal-offline-bbo/torchinductor_ubuntu/m6/cm6ncetewmgk5qsolkak7uceryayez6utaznewcxtvw3qmueefb4.py":18:0), %arg4: !tt.ptr<f32> {tt.divisibility = 16 : i32} loc("/mnt/disk1/khiemtt/universal-offline-bbo/torchinductor_ubuntu/m6/cm6ncetewmgk5qsolkak7uceryayez6utaznewcxtvw3qmueefb4.py":18:0), %arg5: i32 {tt.divisibility = 16 : i32} loc("/mnt/disk1/khiemtt/universal-offline-bbo/torchinductor_ubuntu/m6/cm6ncetewmgk5qsolkak7uceryayez6utaznewcxtvw3qmueefb4.py":18:0), %arg6: i32 {tt.divisibility = 16 : i32} loc("/mnt/disk1/khiemtt/universal-offline-bbo/torchinductor_ubuntu/m6/cm6ncetewmgk5qsolkak7uceryayez6utaznewcxtvw3qmueefb4.py":18:0)) attributes {noinline = false} {
    %cst = arith.constant 9.99999997E-7 : f32 loc(#loc1)
    %cst_0 = arith.constant 5.120000e+02 : f32 loc(#loc1)
    %cst_1 = arith.constant 0.000000e+00 : f32 loc(#loc1)
    %c512_i32 = arith.constant 512 : i32 loc(#loc1)
    %0 = tt.get_program_id x : i32 loc(#loc2)
    %1 = tt.make_range {end = 512 : i32, start = 0 : i32} : tensor<512xi32> loc(#loc3)
    %2 = arith.muli %0, %c512_i32 : i32 loc(#loc4)
    %3 = tt.splat %2 : i32 -> tensor<512xi32> loc(#loc30)
    %4 = arith.addi %1, %3 : tensor<512xi32> loc(#loc5)
    %5 = tt.splat %arg0 : !tt.ptr<f32> -> tensor<512x!tt.ptr<f32>> loc(#loc6)
    %6 = tt.addptr %5, %4 : tensor<512x!tt.ptr<f32>>, tensor<512xi32> loc(#loc6)
    %7 = tt.load %6 : tensor<512x!tt.ptr<f32>> loc(#loc7)
    %8 = tt.splat %arg1 : !tt.ptr<f32> -> tensor<512x!tt.ptr<f32>> loc(#loc8)
    %9 = tt.addptr %8, %4 : tensor<512x!tt.ptr<f32>>, tensor<512xi32> loc(#loc8)
    %10 = tt.load %9 : tensor<512x!tt.ptr<f32>> loc(#loc9)
    %11 = tt.splat %arg2 : !tt.ptr<f32> -> tensor<512x!tt.ptr<f32>> loc(#loc10)
    %12 = tt.addptr %11, %4 : tensor<512x!tt.ptr<f32>>, tensor<512xi32> loc(#loc10)
    %13 = tt.load %12 : tensor<512x!tt.ptr<f32>> loc(#loc11)
    %14 = tt.splat %arg3 : !tt.ptr<f32> -> tensor<512x!tt.ptr<f32>> loc(#loc12)
    %15 = tt.addptr %14, %1 : tensor<512x!tt.ptr<f32>>, tensor<512xi32> loc(#loc12)
    %16 = tt.load %15 evictionPolicy = evict_last : tensor<512x!tt.ptr<f32>> loc(#loc13)
    %17 = arith.addf %7, %10 : tensor<512xf32> loc(#loc14)
    %18 = arith.addf %17, %13 : tensor<512xf32> loc(#loc15)
    %19 = arith.mulf %18, %18 : tensor<512xf32> loc(#loc16)
    %20 = "tt.reduce"(%19) <{axis = 0 : i32}> ({
    ^bb0(%arg7: f32 loc(callsite(#loc1 at #loc18)), %arg8: f32 loc(callsite(#loc1 at #loc18))):
      %30 = arith.addf %arg7, %arg8 : f32 loc(#loc35)
      tt.reduce.return %30 : f32 loc(#loc31)
    }) : (tensor<512xf32>) -> f32 loc(#loc31)
    %21 = arith.addf %20, %cst_1 : f32 loc(#loc33)
    %22 = arith.divf %21, %cst_0 : f32 loc(#loc22)
    %23 = arith.addf %22, %cst : f32 loc(#loc23)
    %24 = tt.extern_elementwise %23 {libname = "", libpath = "", pure = true, symbol = "__nv_rsqrtf"} : (f32) -> f32 loc(#loc24)
    %25 = tt.splat %24 : f32 -> tensor<512xf32> loc(#loc34)
    %26 = arith.mulf %18, %25 : tensor<512xf32> loc(#loc25)
    %27 = arith.mulf %16, %26 : tensor<512xf32> loc(#loc26)
    %28 = tt.splat %arg4 : !tt.ptr<f32> -> tensor<512x!tt.ptr<f32>> loc(#loc27)
    %29 = tt.addptr %28, %4 : tensor<512x!tt.ptr<f32>>, tensor<512xi32> loc(#loc27)
    tt.store %29, %27 : tensor<512x!tt.ptr<f32>> loc(#loc28)
    tt.return loc(#loc29)
  } loc(#loc)
} loc(#loc)
#loc2 = loc("/mnt/disk1/khiemtt/universal-offline-bbo/torchinductor_ubuntu/m6/cm6ncetewmgk5qsolkak7uceryayez6utaznewcxtvw3qmueefb4.py":25:28)
#loc3 = loc("/mnt/disk1/khiemtt/universal-offline-bbo/torchinductor_ubuntu/m6/cm6ncetewmgk5qsolkak7uceryayez6utaznewcxtvw3qmueefb4.py":28:28)
#loc4 = loc("/mnt/disk1/khiemtt/universal-offline-bbo/torchinductor_ubuntu/m6/cm6ncetewmgk5qsolkak7uceryayez6utaznewcxtvw3qmueefb4.py":35:41)
#loc5 = loc("/mnt/disk1/khiemtt/universal-offline-bbo/torchinductor_ubuntu/m6/cm6ncetewmgk5qsolkak7uceryayez6utaznewcxtvw3qmueefb4.py":35:37)
#loc6 = loc("/mnt/disk1/khiemtt/universal-offline-bbo/torchinductor_ubuntu/m6/cm6ncetewmgk5qsolkak7uceryayez6utaznewcxtvw3qmueefb4.py":35:30)
#loc7 = loc("/mnt/disk1/khiemtt/universal-offline-bbo/torchinductor_ubuntu/m6/cm6ncetewmgk5qsolkak7uceryayez6utaznewcxtvw3qmueefb4.py":35:46)
#loc8 = loc("/mnt/disk1/khiemtt/universal-offline-bbo/torchinductor_ubuntu/m6/cm6ncetewmgk5qsolkak7uceryayez6utaznewcxtvw3qmueefb4.py":36:30)
#loc9 = loc("/mnt/disk1/khiemtt/universal-offline-bbo/torchinductor_ubuntu/m6/cm6ncetewmgk5qsolkak7uceryayez6utaznewcxtvw3qmueefb4.py":36:46)
#loc10 = loc("/mnt/disk1/khiemtt/universal-offline-bbo/torchinductor_ubuntu/m6/cm6ncetewmgk5qsolkak7uceryayez6utaznewcxtvw3qmueefb4.py":37:30)
#loc11 = loc("/mnt/disk1/khiemtt/universal-offline-bbo/torchinductor_ubuntu/m6/cm6ncetewmgk5qsolkak7uceryayez6utaznewcxtvw3qmueefb4.py":37:46)
#loc12 = loc("/mnt/disk1/khiemtt/universal-offline-bbo/torchinductor_ubuntu/m6/cm6ncetewmgk5qsolkak7uceryayez6utaznewcxtvw3qmueefb4.py":38:30)
#loc13 = loc("/mnt/disk1/khiemtt/universal-offline-bbo/torchinductor_ubuntu/m6/cm6ncetewmgk5qsolkak7uceryayez6utaznewcxtvw3qmueefb4.py":38:37)
#loc14 = loc("/mnt/disk1/khiemtt/universal-offline-bbo/torchinductor_ubuntu/m6/cm6ncetewmgk5qsolkak7uceryayez6utaznewcxtvw3qmueefb4.py":39:18)
#loc15 = loc("/mnt/disk1/khiemtt/universal-offline-bbo/torchinductor_ubuntu/m6/cm6ncetewmgk5qsolkak7uceryayez6utaznewcxtvw3qmueefb4.py":40:18)
#loc16 = loc("/mnt/disk1/khiemtt/universal-offline-bbo/torchinductor_ubuntu/m6/cm6ncetewmgk5qsolkak7uceryayez6utaznewcxtvw3qmueefb4.py":41:18)
#loc17 = loc("/mnt/disk1/anaconda3/envs/pqhung/lib/python3.9/site-packages/triton/language/standard.py":290:36)
#loc19 = loc("/mnt/disk1/anaconda3/envs/pqhung/lib/python3.9/site-packages/triton/language/standard.py":260:15)
#loc20 = loc("/mnt/disk1/anaconda3/envs/pqhung/lib/python3.9/site-packages/torch/_inductor/runtime/triton_helpers.py":66:15)
#loc21 = loc("/mnt/disk1/khiemtt/universal-offline-bbo/torchinductor_ubuntu/m6/cm6ncetewmgk5qsolkak7uceryayez6utaznewcxtvw3qmueefb4.py":43:44)
#loc22 = loc("/mnt/disk1/khiemtt/universal-offline-bbo/torchinductor_ubuntu/m6/cm6ncetewmgk5qsolkak7uceryayez6utaznewcxtvw3qmueefb4.py":45:20)
#loc23 = loc("/mnt/disk1/khiemtt/universal-offline-bbo/torchinductor_ubuntu/m6/cm6ncetewmgk5qsolkak7uceryayez6utaznewcxtvw3qmueefb4.py":47:20)
#loc24 = loc("/mnt/disk1/khiemtt/universal-offline-bbo/torchinductor_ubuntu/m6/cm6ncetewmgk5qsolkak7uceryayez6utaznewcxtvw3qmueefb4.py":48:28)
#loc25 = loc("/mnt/disk1/khiemtt/universal-offline-bbo/torchinductor_ubuntu/m6/cm6ncetewmgk5qsolkak7uceryayez6utaznewcxtvw3qmueefb4.py":49:19)
#loc26 = loc("/mnt/disk1/khiemtt/universal-offline-bbo/torchinductor_ubuntu/m6/cm6ncetewmgk5qsolkak7uceryayez6utaznewcxtvw3qmueefb4.py":50:19)
#loc27 = loc("/mnt/disk1/khiemtt/universal-offline-bbo/torchinductor_ubuntu/m6/cm6ncetewmgk5qsolkak7uceryayez6utaznewcxtvw3qmueefb4.py":51:25)
#loc28 = loc("/mnt/disk1/khiemtt/universal-offline-bbo/torchinductor_ubuntu/m6/cm6ncetewmgk5qsolkak7uceryayez6utaznewcxtvw3qmueefb4.py":51:48)
#loc29 = loc("/mnt/disk1/khiemtt/universal-offline-bbo/torchinductor_ubuntu/m6/cm6ncetewmgk5qsolkak7uceryayez6utaznewcxtvw3qmueefb4.py":51:4)
#loc30 = loc(fused[#loc5, #loc4])
#loc31 = loc(callsite(#loc17 at #loc18))
#loc33 = loc(callsite(#loc20 at #loc21))
#loc34 = loc(fused[#loc25, #loc24])
#loc35 = loc(callsite(#loc19 at #loc31))
