#loc = loc("/mnt/disk1/khiemtt/universal-offline-bbo/torchinductor_ubuntu/n5/cn52fcjj2m6nnbikgglz6cqq3bmkjztro6kkgkbw3gsnvoaa7fg3.py":18:0)
module {
  tt.func public @triton_poi_fused__to_copy_mul_rsub_1(%arg0: !tt.ptr<i64> {tt.divisibility = 16 : i32} loc("/mnt/disk1/khiemtt/universal-offline-bbo/torchinductor_ubuntu/n5/cn52fcjj2m6nnbikgglz6cqq3bmkjztro6kkgkbw3gsnvoaa7fg3.py":18:0), %arg1: !tt.ptr<f32> {tt.divisibility = 16 : i32} loc("/mnt/disk1/khiemtt/universal-offline-bbo/torchinductor_ubuntu/n5/cn52fcjj2m6nnbikgglz6cqq3bmkjztro6kkgkbw3gsnvoaa7fg3.py":18:0), %arg2: i32 loc("/mnt/disk1/khiemtt/universal-offline-bbo/torchinductor_ubuntu/n5/cn52fcjj2m6nnbikgglz6cqq3bmkjztro6kkgkbw3gsnvoaa7fg3.py":18:0)) attributes {noinline = false} {
    %c2500_i32 = arith.constant 2500 : i32 loc(#loc1)
    %0 = tt.get_program_id x : i32 loc(#loc2)
    %c128_i32 = arith.constant 128 : i32 loc(#loc3)
    %c128_i32_0 = arith.constant 128 : i32 loc(#loc3)
    %1 = arith.muli %0, %c128_i32_0 : i32 loc(#loc3)
    %2 = tt.make_range {end = 128 : i32, start = 0 : i32} : tensor<128xi32> loc(#loc4)
    %3 = tt.splat %1 : i32 -> tensor<128xi32> loc(#loc5)
    %4 = arith.addi %3, %2 : tensor<128xi32> loc(#loc5)
    %cst = arith.constant dense<2500> : tensor<128xi32> loc(#loc6)
    %5 = arith.cmpi slt, %4, %cst : tensor<128xi32> loc(#loc6)
    %c50_i32 = arith.constant 50 : i32 loc(#loc7)
    %c50_i32_1 = arith.constant 50 : i32 loc(#loc7)
    %cst_2 = arith.constant dense<50> : tensor<128xi32> loc(#loc7)
    %6 = arith.remsi %4, %cst_2 : tensor<128xi32> loc(#loc7)
    %c50_i32_3 = arith.constant 50 : i32 loc(#loc8)
    %c50_i32_4 = arith.constant 50 : i32 loc(#loc8)
    %cst_5 = arith.constant dense<50> : tensor<128xi32> loc(#loc8)
    %7 = arith.divsi %4, %cst_5 : tensor<128xi32> loc(#loc8)
    %8 = tt.splat %arg0 : !tt.ptr<i64> -> tensor<128x!tt.ptr<i64>> loc(#loc9)
    %9 = tt.addptr %8, %6 : tensor<128x!tt.ptr<i64>>, tensor<128xi32> loc(#loc9)
    %10 = tt.load %9, %5 evictionPolicy = evict_last : tensor<128x!tt.ptr<i64>> loc(#loc10)
    %11 = arith.cmpi sle, %6, %7 : tensor<128xi32> loc(#loc11)
    %12 = arith.extui %11 : tensor<128xi1> to tensor<128xi64> loc(#loc12)
    %13 = arith.muli %12, %10 : tensor<128xi64> loc(#loc13)
    %14 = arith.sitofp %13 : tensor<128xi64> to tensor<128xf32> loc(#loc14)
    %cst_6 = arith.constant 1.000000e+00 : f32 loc(#loc15)
    %cst_7 = arith.constant dense<1.000000e+00> : tensor<128xf32> loc(#loc16)
    %15 = arith.subf %cst_7, %14 : tensor<128xf32> loc(#loc16)
    %cst_8 = arith.constant -3.40282347E+38 : f32 loc(#loc17)
    %cst_9 = arith.constant dense<-3.40282347E+38> : tensor<128xf32> loc(#loc18)
    %16 = arith.mulf %15, %cst_9 : tensor<128xf32> loc(#loc18)
    %17 = tt.splat %arg1 : !tt.ptr<f32> -> tensor<128x!tt.ptr<f32>> loc(#loc19)
    %18 = tt.addptr %17, %4 : tensor<128x!tt.ptr<f32>>, tensor<128xi32> loc(#loc19)
    tt.store %18, %16, %5 : tensor<128x!tt.ptr<f32>> loc(#loc20)
    tt.return loc(#loc21)
  } loc(#loc)
} loc(#loc)
#loc1 = loc("/mnt/disk1/khiemtt/universal-offline-bbo/torchinductor_ubuntu/n5/cn52fcjj2m6nnbikgglz6cqq3bmkjztro6kkgkbw3gsnvoaa7fg3.py":19:13)
#loc2 = loc("/mnt/disk1/khiemtt/universal-offline-bbo/torchinductor_ubuntu/n5/cn52fcjj2m6nnbikgglz6cqq3bmkjztro6kkgkbw3gsnvoaa7fg3.py":20:28)
#loc3 = loc("/mnt/disk1/khiemtt/universal-offline-bbo/torchinductor_ubuntu/n5/cn52fcjj2m6nnbikgglz6cqq3bmkjztro6kkgkbw3gsnvoaa7fg3.py":20:33)
#loc4 = loc("/mnt/disk1/khiemtt/universal-offline-bbo/torchinductor_ubuntu/n5/cn52fcjj2m6nnbikgglz6cqq3bmkjztro6kkgkbw3gsnvoaa7fg3.py":21:36)
#loc5 = loc("/mnt/disk1/khiemtt/universal-offline-bbo/torchinductor_ubuntu/n5/cn52fcjj2m6nnbikgglz6cqq3bmkjztro6kkgkbw3gsnvoaa7fg3.py":21:23)
#loc6 = loc("/mnt/disk1/khiemtt/universal-offline-bbo/torchinductor_ubuntu/n5/cn52fcjj2m6nnbikgglz6cqq3bmkjztro6kkgkbw3gsnvoaa7fg3.py":22:21)
#loc7 = loc("/mnt/disk1/khiemtt/universal-offline-bbo/torchinductor_ubuntu/n5/cn52fcjj2m6nnbikgglz6cqq3bmkjztro6kkgkbw3gsnvoaa7fg3.py":23:19)
#loc8 = loc("/mnt/disk1/khiemtt/universal-offline-bbo/torchinductor_ubuntu/n5/cn52fcjj2m6nnbikgglz6cqq3bmkjztro6kkgkbw3gsnvoaa7fg3.py":24:19)
#loc9 = loc("/mnt/disk1/khiemtt/universal-offline-bbo/torchinductor_ubuntu/n5/cn52fcjj2m6nnbikgglz6cqq3bmkjztro6kkgkbw3gsnvoaa7fg3.py":26:30)
#loc10 = loc("/mnt/disk1/khiemtt/universal-offline-bbo/torchinductor_ubuntu/n5/cn52fcjj2m6nnbikgglz6cqq3bmkjztro6kkgkbw3gsnvoaa7fg3.py":26:35)
#loc11 = loc("/mnt/disk1/khiemtt/universal-offline-bbo/torchinductor_ubuntu/n5/cn52fcjj2m6nnbikgglz6cqq3bmkjztro6kkgkbw3gsnvoaa7fg3.py":29:19)
#loc12 = loc("/mnt/disk1/khiemtt/universal-offline-bbo/torchinductor_ubuntu/n5/cn52fcjj2m6nnbikgglz6cqq3bmkjztro6kkgkbw3gsnvoaa7fg3.py":30:19)
#loc13 = loc("/mnt/disk1/khiemtt/universal-offline-bbo/torchinductor_ubuntu/n5/cn52fcjj2m6nnbikgglz6cqq3bmkjztro6kkgkbw3gsnvoaa7fg3.py":31:18)
#loc14 = loc("/mnt/disk1/khiemtt/universal-offline-bbo/torchinductor_ubuntu/n5/cn52fcjj2m6nnbikgglz6cqq3bmkjztro6kkgkbw3gsnvoaa7fg3.py":32:19)
#loc15 = loc("/mnt/disk1/khiemtt/universal-offline-bbo/torchinductor_ubuntu/n5/cn52fcjj2m6nnbikgglz6cqq3bmkjztro6kkgkbw3gsnvoaa7fg3.py":33:11)
#loc16 = loc("/mnt/disk1/khiemtt/universal-offline-bbo/torchinductor_ubuntu/n5/cn52fcjj2m6nnbikgglz6cqq3bmkjztro6kkgkbw3gsnvoaa7fg3.py":34:18)
#loc17 = loc("/mnt/disk1/khiemtt/universal-offline-bbo/torchinductor_ubuntu/n5/cn52fcjj2m6nnbikgglz6cqq3bmkjztro6kkgkbw3gsnvoaa7fg3.py":35:11)
#loc18 = loc("/mnt/disk1/khiemtt/universal-offline-bbo/torchinductor_ubuntu/n5/cn52fcjj2m6nnbikgglz6cqq3bmkjztro6kkgkbw3gsnvoaa7fg3.py":36:19)
#loc19 = loc("/mnt/disk1/khiemtt/universal-offline-bbo/torchinductor_ubuntu/n5/cn52fcjj2m6nnbikgglz6cqq3bmkjztro6kkgkbw3gsnvoaa7fg3.py":37:25)
#loc20 = loc("/mnt/disk1/khiemtt/universal-offline-bbo/torchinductor_ubuntu/n5/cn52fcjj2m6nnbikgglz6cqq3bmkjztro6kkgkbw3gsnvoaa7fg3.py":37:37)
#loc21 = loc("/mnt/disk1/khiemtt/universal-offline-bbo/torchinductor_ubuntu/n5/cn52fcjj2m6nnbikgglz6cqq3bmkjztro6kkgkbw3gsnvoaa7fg3.py":37:4)
