#loc = loc("/mnt/disk1/khiemtt/universal-offline-bbo/torchinductor_ubuntu/py/cpyhifkbpewlrtbshcs5zryxdfj56w422zdsghigikosv7s7nd2c.py":18:0)
#loc1 = loc(unknown)
#loc23 = loc("/mnt/disk1/khiemtt/universal-offline-bbo/torchinductor_ubuntu/py/cpyhifkbpewlrtbshcs5zryxdfj56w422zdsghigikosv7s7nd2c.py":46:59)
#loc37 = loc(callsite(#loc1 at #loc23))
module {
  tt.func public @triton_per_fused_add_mean_mul_pow_rsqrt_13(%arg0: !tt.ptr<f32> {tt.divisibility = 16 : i32} loc("/mnt/disk1/khiemtt/universal-offline-bbo/torchinductor_ubuntu/py/cpyhifkbpewlrtbshcs5zryxdfj56w422zdsghigikosv7s7nd2c.py":18:0), %arg1: !tt.ptr<f32> {tt.divisibility = 16 : i32} loc("/mnt/disk1/khiemtt/universal-offline-bbo/torchinductor_ubuntu/py/cpyhifkbpewlrtbshcs5zryxdfj56w422zdsghigikosv7s7nd2c.py":18:0), %arg2: !tt.ptr<f32> {tt.divisibility = 16 : i32} loc("/mnt/disk1/khiemtt/universal-offline-bbo/torchinductor_ubuntu/py/cpyhifkbpewlrtbshcs5zryxdfj56w422zdsghigikosv7s7nd2c.py":18:0), %arg3: !tt.ptr<f32> {tt.divisibility = 16 : i32} loc("/mnt/disk1/khiemtt/universal-offline-bbo/torchinductor_ubuntu/py/cpyhifkbpewlrtbshcs5zryxdfj56w422zdsghigikosv7s7nd2c.py":18:0), %arg4: !tt.ptr<f32> {tt.divisibility = 16 : i32} loc("/mnt/disk1/khiemtt/universal-offline-bbo/torchinductor_ubuntu/py/cpyhifkbpewlrtbshcs5zryxdfj56w422zdsghigikosv7s7nd2c.py":18:0), %arg5: !tt.ptr<f32> {tt.divisibility = 16 : i32} loc("/mnt/disk1/khiemtt/universal-offline-bbo/torchinductor_ubuntu/py/cpyhifkbpewlrtbshcs5zryxdfj56w422zdsghigikosv7s7nd2c.py":18:0), %arg6: i32 {tt.divisibility = 16 : i32} loc("/mnt/disk1/khiemtt/universal-offline-bbo/torchinductor_ubuntu/py/cpyhifkbpewlrtbshcs5zryxdfj56w422zdsghigikosv7s7nd2c.py":18:0), %arg7: i32 {tt.divisibility = 16 : i32} loc("/mnt/disk1/khiemtt/universal-offline-bbo/torchinductor_ubuntu/py/cpyhifkbpewlrtbshcs5zryxdfj56w422zdsghigikosv7s7nd2c.py":18:0)) attributes {noinline = false} {
    %cst = arith.constant 9.99999997E-7 : f32 loc(#loc1)
    %cst_0 = arith.constant 3.840000e+02 : f32 loc(#loc1)
    %cst_1 = arith.constant 0.000000e+00 : f32 loc(#loc1)
    %c384_i32 = arith.constant 384 : i32 loc(#loc1)
    %cst_2 = arith.constant dense<0.000000e+00> : tensor<512xf32> loc(#loc1)
    %cst_3 = arith.constant dense<384> : tensor<512xi32> loc(#loc1)
    %0 = tt.get_program_id x : i32 loc(#loc2)
    %1 = tt.make_range {end = 512 : i32, start = 0 : i32} : tensor<512xi32> loc(#loc3)
    %2 = arith.cmpi slt, %1, %cst_3 : tensor<512xi32> loc(#loc4)
    %3 = arith.muli %0, %c384_i32 : i32 loc(#loc5)
    %4 = tt.splat %3 : i32 -> tensor<512xi32> loc(#loc35)
    %5 = arith.addi %1, %4 : tensor<512xi32> loc(#loc6)
    %6 = tt.splat %arg0 : !tt.ptr<f32> -> tensor<512x!tt.ptr<f32>> loc(#loc7)
    %7 = tt.addptr %6, %5 : tensor<512x!tt.ptr<f32>>, tensor<512xi32> loc(#loc7)
    %8 = tt.load %7, %2, %cst_2 : tensor<512x!tt.ptr<f32>> loc(#loc8)
    %9 = tt.splat %arg1 : !tt.ptr<f32> -> tensor<512x!tt.ptr<f32>> loc(#loc9)
    %10 = tt.addptr %9, %5 : tensor<512x!tt.ptr<f32>>, tensor<512xi32> loc(#loc9)
    %11 = tt.load %10, %2, %cst_2 : tensor<512x!tt.ptr<f32>> loc(#loc10)
    %12 = tt.splat %arg2 : !tt.ptr<f32> -> tensor<512x!tt.ptr<f32>> loc(#loc11)
    %13 = tt.addptr %12, %5 : tensor<512x!tt.ptr<f32>>, tensor<512xi32> loc(#loc11)
    %14 = tt.load %13, %2, %cst_2 : tensor<512x!tt.ptr<f32>> loc(#loc12)
    %15 = tt.splat %arg3 : !tt.ptr<f32> -> tensor<512x!tt.ptr<f32>> loc(#loc13)
    %16 = tt.addptr %15, %5 : tensor<512x!tt.ptr<f32>>, tensor<512xi32> loc(#loc13)
    %17 = tt.load %16, %2, %cst_2 : tensor<512x!tt.ptr<f32>> loc(#loc14)
    %18 = tt.splat %arg4 : !tt.ptr<f32> -> tensor<512x!tt.ptr<f32>> loc(#loc15)
    %19 = tt.addptr %18, %1 : tensor<512x!tt.ptr<f32>>, tensor<512xi32> loc(#loc15)
    %20 = tt.load %19, %2, %cst_2 evictionPolicy = evict_last : tensor<512x!tt.ptr<f32>> loc(#loc16)
    %21 = arith.addf %8, %11 : tensor<512xf32> loc(#loc17)
    %22 = arith.addf %21, %14 : tensor<512xf32> loc(#loc18)
    %23 = arith.addf %22, %17 : tensor<512xf32> loc(#loc19)
    %24 = arith.mulf %23, %23 : tensor<512xf32> loc(#loc20)
    %25 = arith.select %2, %24, %cst_2 : tensor<512xi1>, tensor<512xf32> loc(#loc21)
    %26 = "tt.reduce"(%25) <{axis = 0 : i32}> ({
    ^bb0(%arg8: f32 loc(callsite(#loc1 at #loc23)), %arg9: f32 loc(callsite(#loc1 at #loc23))):
      %36 = arith.addf %arg8, %arg9 : f32 loc(#loc40)
      tt.reduce.return %36 : f32 loc(#loc36)
    }) : (tensor<512xf32>) -> f32 loc(#loc36)
    %27 = arith.addf %26, %cst_1 : f32 loc(#loc38)
    %28 = arith.divf %27, %cst_0 : f32 loc(#loc27)
    %29 = arith.addf %28, %cst : f32 loc(#loc28)
    %30 = tt.extern_elementwise %29 {libname = "", libpath = "", pure = true, symbol = "__nv_rsqrtf"} : (f32) -> f32 loc(#loc29)
    %31 = tt.splat %30 : f32 -> tensor<512xf32> loc(#loc39)
    %32 = arith.mulf %23, %31 : tensor<512xf32> loc(#loc30)
    %33 = arith.mulf %20, %32 : tensor<512xf32> loc(#loc31)
    %34 = tt.splat %arg5 : !tt.ptr<f32> -> tensor<512x!tt.ptr<f32>> loc(#loc32)
    %35 = tt.addptr %34, %5 : tensor<512x!tt.ptr<f32>>, tensor<512xi32> loc(#loc32)
    tt.store %35, %33, %2 : tensor<512x!tt.ptr<f32>> loc(#loc33)
    tt.return loc(#loc34)
  } loc(#loc)
} loc(#loc)
#loc2 = loc("/mnt/disk1/khiemtt/universal-offline-bbo/torchinductor_ubuntu/py/cpyhifkbpewlrtbshcs5zryxdfj56w422zdsghigikosv7s7nd2c.py":25:28)
#loc3 = loc("/mnt/disk1/khiemtt/universal-offline-bbo/torchinductor_ubuntu/py/cpyhifkbpewlrtbshcs5zryxdfj56w422zdsghigikosv7s7nd2c.py":28:28)
#loc4 = loc("/mnt/disk1/khiemtt/universal-offline-bbo/torchinductor_ubuntu/py/cpyhifkbpewlrtbshcs5zryxdfj56w422zdsghigikosv7s7nd2c.py":30:25)
#loc5 = loc("/mnt/disk1/khiemtt/universal-offline-bbo/torchinductor_ubuntu/py/cpyhifkbpewlrtbshcs5zryxdfj56w422zdsghigikosv7s7nd2c.py":35:41)
#loc6 = loc("/mnt/disk1/khiemtt/universal-offline-bbo/torchinductor_ubuntu/py/cpyhifkbpewlrtbshcs5zryxdfj56w422zdsghigikosv7s7nd2c.py":35:37)
#loc7 = loc("/mnt/disk1/khiemtt/universal-offline-bbo/torchinductor_ubuntu/py/cpyhifkbpewlrtbshcs5zryxdfj56w422zdsghigikosv7s7nd2c.py":35:30)
#loc8 = loc("/mnt/disk1/khiemtt/universal-offline-bbo/torchinductor_ubuntu/py/cpyhifkbpewlrtbshcs5zryxdfj56w422zdsghigikosv7s7nd2c.py":35:46)
#loc9 = loc("/mnt/disk1/khiemtt/universal-offline-bbo/torchinductor_ubuntu/py/cpyhifkbpewlrtbshcs5zryxdfj56w422zdsghigikosv7s7nd2c.py":36:30)
#loc10 = loc("/mnt/disk1/khiemtt/universal-offline-bbo/torchinductor_ubuntu/py/cpyhifkbpewlrtbshcs5zryxdfj56w422zdsghigikosv7s7nd2c.py":36:46)
#loc11 = loc("/mnt/disk1/khiemtt/universal-offline-bbo/torchinductor_ubuntu/py/cpyhifkbpewlrtbshcs5zryxdfj56w422zdsghigikosv7s7nd2c.py":37:30)
#loc12 = loc("/mnt/disk1/khiemtt/universal-offline-bbo/torchinductor_ubuntu/py/cpyhifkbpewlrtbshcs5zryxdfj56w422zdsghigikosv7s7nd2c.py":37:46)
#loc13 = loc("/mnt/disk1/khiemtt/universal-offline-bbo/torchinductor_ubuntu/py/cpyhifkbpewlrtbshcs5zryxdfj56w422zdsghigikosv7s7nd2c.py":38:30)
#loc14 = loc("/mnt/disk1/khiemtt/universal-offline-bbo/torchinductor_ubuntu/py/cpyhifkbpewlrtbshcs5zryxdfj56w422zdsghigikosv7s7nd2c.py":38:46)
#loc15 = loc("/mnt/disk1/khiemtt/universal-offline-bbo/torchinductor_ubuntu/py/cpyhifkbpewlrtbshcs5zryxdfj56w422zdsghigikosv7s7nd2c.py":39:31)
#loc16 = loc("/mnt/disk1/khiemtt/universal-offline-bbo/torchinductor_ubuntu/py/cpyhifkbpewlrtbshcs5zryxdfj56w422zdsghigikosv7s7nd2c.py":39:38)
#loc17 = loc("/mnt/disk1/khiemtt/universal-offline-bbo/torchinductor_ubuntu/py/cpyhifkbpewlrtbshcs5zryxdfj56w422zdsghigikosv7s7nd2c.py":40:18)
#loc18 = loc("/mnt/disk1/khiemtt/universal-offline-bbo/torchinductor_ubuntu/py/cpyhifkbpewlrtbshcs5zryxdfj56w422zdsghigikosv7s7nd2c.py":41:18)
#loc19 = loc("/mnt/disk1/khiemtt/universal-offline-bbo/torchinductor_ubuntu/py/cpyhifkbpewlrtbshcs5zryxdfj56w422zdsghigikosv7s7nd2c.py":42:18)
#loc20 = loc("/mnt/disk1/khiemtt/universal-offline-bbo/torchinductor_ubuntu/py/cpyhifkbpewlrtbshcs5zryxdfj56w422zdsghigikosv7s7nd2c.py":43:18)
#loc21 = loc("/mnt/disk1/khiemtt/universal-offline-bbo/torchinductor_ubuntu/py/cpyhifkbpewlrtbshcs5zryxdfj56w422zdsghigikosv7s7nd2c.py":45:36)
#loc22 = loc("/mnt/disk1/anaconda3/envs/pqhung/lib/python3.9/site-packages/triton/language/standard.py":290:36)
#loc24 = loc("/mnt/disk1/anaconda3/envs/pqhung/lib/python3.9/site-packages/triton/language/standard.py":260:15)
#loc25 = loc("/mnt/disk1/anaconda3/envs/pqhung/lib/python3.9/site-packages/torch/_inductor/runtime/triton_helpers.py":66:15)
#loc26 = loc("/mnt/disk1/khiemtt/universal-offline-bbo/torchinductor_ubuntu/py/cpyhifkbpewlrtbshcs5zryxdfj56w422zdsghigikosv7s7nd2c.py":46:45)
#loc27 = loc("/mnt/disk1/khiemtt/universal-offline-bbo/torchinductor_ubuntu/py/cpyhifkbpewlrtbshcs5zryxdfj56w422zdsghigikosv7s7nd2c.py":48:21)
#loc28 = loc("/mnt/disk1/khiemtt/universal-offline-bbo/torchinductor_ubuntu/py/cpyhifkbpewlrtbshcs5zryxdfj56w422zdsghigikosv7s7nd2c.py":50:20)
#loc29 = loc("/mnt/disk1/khiemtt/universal-offline-bbo/torchinductor_ubuntu/py/cpyhifkbpewlrtbshcs5zryxdfj56w422zdsghigikosv7s7nd2c.py":51:28)
#loc30 = loc("/mnt/disk1/khiemtt/universal-offline-bbo/torchinductor_ubuntu/py/cpyhifkbpewlrtbshcs5zryxdfj56w422zdsghigikosv7s7nd2c.py":52:19)
#loc31 = loc("/mnt/disk1/khiemtt/universal-offline-bbo/torchinductor_ubuntu/py/cpyhifkbpewlrtbshcs5zryxdfj56w422zdsghigikosv7s7nd2c.py":53:20)
#loc32 = loc("/mnt/disk1/khiemtt/universal-offline-bbo/torchinductor_ubuntu/py/cpyhifkbpewlrtbshcs5zryxdfj56w422zdsghigikosv7s7nd2c.py":54:25)
#loc33 = loc("/mnt/disk1/khiemtt/universal-offline-bbo/torchinductor_ubuntu/py/cpyhifkbpewlrtbshcs5zryxdfj56w422zdsghigikosv7s7nd2c.py":54:48)
#loc34 = loc("/mnt/disk1/khiemtt/universal-offline-bbo/torchinductor_ubuntu/py/cpyhifkbpewlrtbshcs5zryxdfj56w422zdsghigikosv7s7nd2c.py":54:4)
#loc35 = loc(fused[#loc6, #loc5])
#loc36 = loc(callsite(#loc22 at #loc23))
#loc38 = loc(callsite(#loc25 at #loc26))
#loc39 = loc(fused[#loc30, #loc29])
#loc40 = loc(callsite(#loc24 at #loc36))
