#loc = loc("/mnt/disk1/khiemtt/universal-offline-bbo/torchinductor_ubuntu/q3/cq3kxhk6ezre54h5ziwl6hsecpapb2olfiljuaorambagbt7lmwk.py":18:0)
#loc61 = loc("/mnt/disk1/anaconda3/envs/pqhung/lib/python3.9/site-packages/torch/_inductor/runtime/triton_helpers.py":102:0)
#loc71 = loc("/mnt/disk1/anaconda3/envs/pqhung/lib/python3.9/site-packages/torch/_inductor/runtime/triton_helpers.py":87:0)
#loc75 = loc("/mnt/disk1/anaconda3/envs/pqhung/lib/python3.9/site-packages/torch/_inductor/runtime/triton_helpers.py":64:0)
module {
  tt.func public @triton_poi_fused__to_copy_add_mul_rsub_1(%arg0: !tt.ptr<f32> {tt.divisibility = 16 : i32} loc("/mnt/disk1/khiemtt/universal-offline-bbo/torchinductor_ubuntu/q3/cq3kxhk6ezre54h5ziwl6hsecpapb2olfiljuaorambagbt7lmwk.py":18:0), %arg1: !tt.ptr<i64> {tt.divisibility = 16 : i32} loc("/mnt/disk1/khiemtt/universal-offline-bbo/torchinductor_ubuntu/q3/cq3kxhk6ezre54h5ziwl6hsecpapb2olfiljuaorambagbt7lmwk.py":18:0), %arg2: !tt.ptr<f32> {tt.divisibility = 16 : i32} loc("/mnt/disk1/khiemtt/universal-offline-bbo/torchinductor_ubuntu/q3/cq3kxhk6ezre54h5ziwl6hsecpapb2olfiljuaorambagbt7lmwk.py":18:0), %arg3: i32 {tt.divisibility = 16 : i32} loc("/mnt/disk1/khiemtt/universal-offline-bbo/torchinductor_ubuntu/q3/cq3kxhk6ezre54h5ziwl6hsecpapb2olfiljuaorambagbt7lmwk.py":18:0)) attributes {noinline = false} {
    %c32768_i32 = arith.constant 32768 : i32 loc(#loc1)
    %0 = tt.get_program_id x : i32 loc(#loc2)
    %c256_i32 = arith.constant 256 : i32 loc(#loc3)
    %c256_i32_0 = arith.constant 256 : i32 loc(#loc3)
    %1 = arith.muli %0, %c256_i32_0 : i32 loc(#loc3)
    %2 = tt.make_range {end = 256 : i32, start = 0 : i32} : tensor<256xi32> loc(#loc4)
    %3 = tt.splat %1 : i32 -> tensor<256xi32> loc(#loc5)
    %4 = arith.addi %3, %2 : tensor<256xi32> loc(#loc5)
    %true = arith.constant true loc(#loc6)
    %cst = arith.constant dense<true> : tensor<256xi1> loc(#loc6)
    %c8_i32 = arith.constant 8 : i32 loc(#loc7)
    %c8_i32_1 = arith.constant 8 : i32 loc(#loc7)
    %cst_2 = arith.constant dense<8> : tensor<256xi32> loc(#loc7)
    %5 = arith.divsi %4, %cst_2 : tensor<256xi32> loc(#loc7)
    %c64_i32 = arith.constant 64 : i32 loc(#loc8)
    %c64_i32_3 = arith.constant 64 : i32 loc(#loc8)
    %cst_4 = arith.constant dense<64> : tensor<256xi32> loc(#loc8)
    %6 = arith.remsi %5, %cst_4 : tensor<256xi32> loc(#loc8)
    %c512_i32 = arith.constant 512 : i32 loc(#loc9)
    %c512_i32_5 = arith.constant 512 : i32 loc(#loc9)
    %cst_6 = arith.constant dense<512> : tensor<256xi32> loc(#loc9)
    %7 = arith.divsi %4, %cst_6 : tensor<256xi32> loc(#loc9)
    %c8_i32_7 = arith.constant 8 : i32 loc(#loc10)
    %c8_i32_8 = arith.constant 8 : i32 loc(#loc10)
    %cst_9 = arith.constant dense<8> : tensor<256xi32> loc(#loc10)
    %8 = arith.remsi %4, %cst_9 : tensor<256xi32> loc(#loc10)
    %9 = tt.splat %arg1 : !tt.ptr<i64> -> tensor<256x!tt.ptr<i64>> loc(#loc11)
    %10 = tt.addptr %9, %6 : tensor<256x!tt.ptr<i64>>, tensor<256xi32> loc(#loc11)
    %11 = tt.load %10 evictionPolicy = evict_last : tensor<256x!tt.ptr<i64>> loc(#loc12)
    %c-1_i32 = arith.constant -1 : i32 loc(#loc13)
    %c-1_i32_10 = arith.constant -1 : i32 loc(#loc13)
    %cst_11 = arith.constant dense<-1> : tensor<256xi32> loc(#loc13)
    %12 = arith.muli %cst_11, %7 : tensor<256xi32> loc(#loc13)
    %13 = arith.addi %6, %12 : tensor<256xi32> loc(#loc14)
    %c0_i64 = arith.constant 0 : i64 loc(#loc15)
    %cst_12 = arith.constant dense<0> : tensor<1xi64> loc(#loc15)
    %14 = arith.extsi %13 : tensor<256xi32> to tensor<256xi64> loc(#loc16)
    %cst_13 = arith.constant dense<0> : tensor<256xi64> loc(#loc16)
    %15 = arith.cmpi sgt, %14, %cst_13 : tensor<256xi64> loc(#loc16)
    %16 = arith.extui %15 : tensor<256xi1> to tensor<256xi64> loc(#loc17)
    %c16_i64 = arith.constant 16 : i64 loc(#loc18)
    %cst_14 = arith.constant dense<16> : tensor<1xi64> loc(#loc18)
    %cst_15 = arith.constant dense<16> : tensor<256xi64> loc(#loc19)
    %17 = arith.muli %16, %cst_15 : tensor<256xi64> loc(#loc19)
    %cst_16 = arith.constant dense<0> : tensor<256xi64> loc(#loc20)
    %18 = arith.addi %17, %cst_16 : tensor<256xi64> loc(#loc20)
    %c-1_i32_17 = arith.constant -1 : i32 loc(#loc21)
    %c-1_i32_18 = arith.constant -1 : i32 loc(#loc21)
    %cst_19 = arith.constant dense<-1> : tensor<256xi32> loc(#loc21)
    %19 = arith.muli %cst_19, %7 : tensor<256xi32> loc(#loc21)
    %20 = arith.addi %6, %19 : tensor<256xi32> loc(#loc22)
    %21 = math.absi %20 : tensor<256xi32> loc(#loc23)
    %c8_i64 = arith.constant 8 : i64 loc(#loc24)
    %cst_20 = arith.constant dense<8> : tensor<1xi64> loc(#loc24)
    %22 = arith.extsi %21 : tensor<256xi32> to tensor<256xi64> loc(#loc25)
    %cst_21 = arith.constant dense<8> : tensor<256xi64> loc(#loc25)
    %23 = arith.cmpi slt, %22, %cst_21 : tensor<256xi64> loc(#loc25)
    %24 = arith.sitofp %21 : tensor<256xi32> to tensor<256xf32> loc(#loc26)
    %cst_22 = arith.constant 1.250000e-01 : f32 loc(#loc27)
    %cst_23 = arith.constant dense<1.250000e-01> : tensor<256xf32> loc(#loc28)
    %25 = arith.mulf %24, %cst_23 : tensor<256xf32> loc(#loc28)
    %26 = math.log %25 : tensor<256xf32> loc(#loc29)
    %cst_24 = arith.constant 0.360673755 : f32 loc(#loc30)
    %cst_25 = arith.constant dense<0.360673755> : tensor<256xf32> loc(#loc31)
    %27 = arith.mulf %26, %cst_25 : tensor<256xf32> loc(#loc31)
    %cst_26 = arith.constant 8.000000e+00 : f32 loc(#loc32)
    %cst_27 = arith.constant dense<8.000000e+00> : tensor<256xf32> loc(#loc33)
    %28 = arith.mulf %27, %cst_27 : tensor<256xf32> loc(#loc33)
    %29 = arith.fptosi %28 : tensor<256xf32> to tensor<256xi64> loc(#loc34)
    %cst_28 = arith.constant dense<8> : tensor<256xi64> loc(#loc35)
    %30 = arith.addi %29, %cst_28 : tensor<256xi64> loc(#loc35)
    %c15_i64 = arith.constant 15 : i64 loc(#loc36)
    %cst_29 = arith.constant dense<15> : tensor<1xi64> loc(#loc36)
    %31 = tt.call @torch._inductor.runtime.triton_helpers.minimum__i64S256S_i64S1S__(%30, %cst_29) : (tensor<256xi64>, tensor<1xi64>) -> tensor<256xi64> loc(#loc37)
    %32 = arith.extsi %21 : tensor<256xi32> to tensor<256xi64> loc(#loc38)
    %33 = arith.select %23, %32, %31 : tensor<256xi1>, tensor<256xi64> loc(#loc38)
    %34 = arith.addi %18, %33 : tensor<256xi64> loc(#loc39)
    %c32_i32 = arith.constant 32 : i32 loc(#loc40)
    %cst_30 = arith.constant dense<32> : tensor<256xi32> loc(#loc40)
    %35 = arith.extsi %cst_30 : tensor<256xi32> to tensor<256xi64> loc(#loc41)
    %36 = arith.addi %34, %35 : tensor<256xi64> loc(#loc41)
    %c0_i32 = arith.constant 0 : i32 loc(#loc42)
    %37 = arith.extsi %c0_i32 : i32 to i64 loc(#loc42)
    %38 = tt.splat %37 : i64 -> tensor<256xi64> loc(#loc42)
    %39 = arith.cmpi slt, %34, %38 : tensor<256xi64> loc(#loc42)
    %40 = arith.select %39, %36, %34 : tensor<256xi1>, tensor<256xi64> loc(#loc43)
    %c0_i32_31 = arith.constant 0 : i32 loc(#loc44)
    %41 = arith.extsi %c0_i32_31 : i32 to i64 loc(#loc44)
    %42 = tt.splat %41 : i64 -> tensor<256xi64> loc(#loc44)
    %43 = arith.cmpi sle, %42, %40 : tensor<256xi64> loc(#loc44)
    %c32_i32_32 = arith.constant 32 : i32 loc(#loc45)
    %44 = arith.extsi %c32_i32_32 : i32 to i64 loc(#loc45)
    %45 = tt.splat %44 : i64 -> tensor<256xi64> loc(#loc45)
    %46 = arith.cmpi slt, %40, %45 : tensor<256xi64> loc(#loc45)
    %47 = arith.andi %43, %46 : tensor<256xi1> loc(#loc46)
    tt.assert %47, "index out of bounds: 0 <= tmp27 < 32" : tensor<256xi1> loc(#loc47)
    %c8_i32_33 = arith.constant 8 : i32 loc(#loc48)
    %c8_i64_34 = arith.constant 8 : i64 loc(#loc48)
    %cst_35 = arith.constant dense<8> : tensor<256xi64> loc(#loc48)
    %48 = arith.muli %cst_35, %40 : tensor<256xi64> loc(#loc48)
    %49 = arith.extsi %8 : tensor<256xi32> to tensor<256xi64> loc(#loc49)
    %50 = arith.addi %49, %48 : tensor<256xi64> loc(#loc49)
    %51 = tt.splat %arg0 : !tt.ptr<f32> -> tensor<256x!tt.ptr<f32>> loc(#loc50)
    %52 = tt.addptr %51, %50 : tensor<256x!tt.ptr<f32>>, tensor<256xi64> loc(#loc50)
    %53 = tt.load %52 : tensor<256x!tt.ptr<f32>> loc(#loc51)
    %54 = arith.sitofp %11 : tensor<256xi64> to tensor<256xf32> loc(#loc52)
    %cst_36 = arith.constant 1.000000e+00 : f32 loc(#loc53)
    %cst_37 = arith.constant dense<1.000000e+00> : tensor<256xf32> loc(#loc54)
    %55 = arith.subf %cst_37, %54 : tensor<256xf32> loc(#loc54)
    %cst_38 = arith.constant -3.40282347E+38 : f32 loc(#loc55)
    %cst_39 = arith.constant dense<-3.40282347E+38> : tensor<256xf32> loc(#loc56)
    %56 = arith.mulf %55, %cst_39 : tensor<256xf32> loc(#loc56)
    %57 = arith.addf %53, %56 : tensor<256xf32> loc(#loc57)
    %58 = tt.splat %arg2 : !tt.ptr<f32> -> tensor<256x!tt.ptr<f32>> loc(#loc58)
    %59 = tt.addptr %58, %4 : tensor<256x!tt.ptr<f32>>, tensor<256xi32> loc(#loc58)
    tt.store %59, %57 : tensor<256x!tt.ptr<f32>> loc(#loc59)
    tt.return loc(#loc60)
  } loc(#loc)
  tt.func private @torch._inductor.runtime.triton_helpers.minimum__i64S256S_i64S1S__(%arg0: tensor<256xi64> loc("/mnt/disk1/anaconda3/envs/pqhung/lib/python3.9/site-packages/torch/_inductor/runtime/triton_helpers.py":102:0), %arg1: tensor<1xi64> loc("/mnt/disk1/anaconda3/envs/pqhung/lib/python3.9/site-packages/torch/_inductor/runtime/triton_helpers.py":102:0)) -> tensor<256xi64> attributes {noinline = false} {
    %0 = tt.broadcast %arg1 : tensor<1xi64> -> tensor<256xi64> loc(#loc62)
    %1 = arith.cmpi slt, %arg0, %0 : tensor<256xi64> loc(#loc62)
    %2 = tt.call @torch._inductor.runtime.triton_helpers.is_floating__i64S256S__(%arg0) : (tensor<256xi64>) -> i1 loc(#loc63)
    %3 = scf.if %2 -> (tensor<256xi1>) {
      %7 = arith.cmpi ne, %arg0, %arg0 : tensor<256xi64> loc(#loc65)
      %8 = arith.ori %1, %7 : tensor<256xi1> loc(#loc66)
      scf.yield %8 : tensor<256xi1> loc(#loc66)
    } else {
      scf.yield %1 : tensor<256xi1> loc(#loc67)
    } loc(#loc64)
    %4 = tt.broadcast %arg1 : tensor<1xi64> -> tensor<256xi64> loc(#loc68)
    %5 = arith.select %3, %arg0, %4 : tensor<256xi1>, tensor<256xi64> loc(#loc68)
    tt.return %5 : tensor<256xi64> loc(#loc69)
  ^bb1:  // no predecessors
    %6 = ub.poison : tensor<256xi64> loc(#loc70)
    tt.return %6 : tensor<256xi64> loc(#loc70)
  } loc(#loc61)
  tt.func private @torch._inductor.runtime.triton_helpers.is_floating__i64S256S__(%arg0: tensor<256xi64> loc("/mnt/disk1/anaconda3/envs/pqhung/lib/python3.9/site-packages/torch/_inductor/runtime/triton_helpers.py":87:0)) -> i1 attributes {noinline = false} {
    %0 = tt.call @torch._inductor.runtime.triton_helpers.promote_to_tensor__i64S256S__(%arg0) : (tensor<256xi64>) -> tensor<256xi64> loc(#loc72)
    %false = arith.constant false loc(#loc73)
    tt.return %false : i1 loc(#loc73)
  ^bb1:  // no predecessors
    %1 = ub.poison : i1 loc(#loc74)
    tt.return %1 : i1 loc(#loc74)
  } loc(#loc71)
  tt.func private @torch._inductor.runtime.triton_helpers.promote_to_tensor__i64S256S__(%arg0: tensor<256xi64> loc("/mnt/disk1/anaconda3/envs/pqhung/lib/python3.9/site-packages/torch/_inductor/runtime/triton_helpers.py":64:0)) -> tensor<256xi64> attributes {noinline = false} {
    %0 = tt.call @"triton.language.standard.zeros____(0, 0)cconstexpr_1__(1,)cconstexpr_int1_"() : () -> tensor<1xi1> loc(#loc76)
    %1 = arith.extui %0 : tensor<1xi1> to tensor<1xi64> loc(#loc77)
    %2 = tt.broadcast %1 : tensor<1xi64> -> tensor<256xi64> loc(#loc77)
    %3 = arith.addi %arg0, %2 : tensor<256xi64> loc(#loc77)
    tt.return %3 : tensor<256xi64> loc(#loc78)
  ^bb1:  // no predecessors
    %4 = ub.poison : tensor<256xi64> loc(#loc79)
    tt.return %4 : tensor<256xi64> loc(#loc79)
  } loc(#loc75)
  tt.func private @"triton.language.standard.zeros____(0, 0)cconstexpr_1__(1,)cconstexpr_int1_"() -> tensor<1xi1> attributes {noinline = false} {
    %false = arith.constant false loc(#loc81)
    %cst = arith.constant dense<false> : tensor<1xi1> loc(#loc81)
    tt.return %cst : tensor<1xi1> loc(#loc82)
  ^bb1:  // no predecessors
    %0 = ub.poison : tensor<1xi1> loc(#loc83)
    tt.return %0 : tensor<1xi1> loc(#loc83)
  } loc(#loc80)
} loc(#loc)
#loc1 = loc("/mnt/disk1/khiemtt/universal-offline-bbo/torchinductor_ubuntu/q3/cq3kxhk6ezre54h5ziwl6hsecpapb2olfiljuaorambagbt7lmwk.py":19:13)
#loc2 = loc("/mnt/disk1/khiemtt/universal-offline-bbo/torchinductor_ubuntu/q3/cq3kxhk6ezre54h5ziwl6hsecpapb2olfiljuaorambagbt7lmwk.py":20:28)
#loc3 = loc("/mnt/disk1/khiemtt/universal-offline-bbo/torchinductor_ubuntu/q3/cq3kxhk6ezre54h5ziwl6hsecpapb2olfiljuaorambagbt7lmwk.py":20:33)
#loc4 = loc("/mnt/disk1/khiemtt/universal-offline-bbo/torchinductor_ubuntu/q3/cq3kxhk6ezre54h5ziwl6hsecpapb2olfiljuaorambagbt7lmwk.py":21:36)
#loc5 = loc("/mnt/disk1/khiemtt/universal-offline-bbo/torchinductor_ubuntu/q3/cq3kxhk6ezre54h5ziwl6hsecpapb2olfiljuaorambagbt7lmwk.py":21:23)
#loc6 = loc("/mnt/disk1/khiemtt/universal-offline-bbo/torchinductor_ubuntu/q3/cq3kxhk6ezre54h5ziwl6hsecpapb2olfiljuaorambagbt7lmwk.py":22:36)
#loc7 = loc("/mnt/disk1/khiemtt/universal-offline-bbo/torchinductor_ubuntu/q3/cq3kxhk6ezre54h5ziwl6hsecpapb2olfiljuaorambagbt7lmwk.py":23:21)
#loc8 = loc("/mnt/disk1/khiemtt/universal-offline-bbo/torchinductor_ubuntu/q3/cq3kxhk6ezre54h5ziwl6hsecpapb2olfiljuaorambagbt7lmwk.py":23:26)
#loc9 = loc("/mnt/disk1/khiemtt/universal-offline-bbo/torchinductor_ubuntu/q3/cq3kxhk6ezre54h5ziwl6hsecpapb2olfiljuaorambagbt7lmwk.py":24:19)
#loc10 = loc("/mnt/disk1/khiemtt/universal-offline-bbo/torchinductor_ubuntu/q3/cq3kxhk6ezre54h5ziwl6hsecpapb2olfiljuaorambagbt7lmwk.py":25:19)
#loc11 = loc("/mnt/disk1/khiemtt/universal-offline-bbo/torchinductor_ubuntu/q3/cq3kxhk6ezre54h5ziwl6hsecpapb2olfiljuaorambagbt7lmwk.py":27:31)
#loc12 = loc("/mnt/disk1/khiemtt/universal-offline-bbo/torchinductor_ubuntu/q3/cq3kxhk6ezre54h5ziwl6hsecpapb2olfiljuaorambagbt7lmwk.py":27:36)
#loc13 = loc("/mnt/disk1/khiemtt/universal-offline-bbo/torchinductor_ubuntu/q3/cq3kxhk6ezre54h5ziwl6hsecpapb2olfiljuaorambagbt7lmwk.py":28:22)
#loc14 = loc("/mnt/disk1/khiemtt/universal-offline-bbo/torchinductor_ubuntu/q3/cq3kxhk6ezre54h5ziwl6hsecpapb2olfiljuaorambagbt7lmwk.py":28:17)
#loc15 = loc("/mnt/disk1/khiemtt/universal-offline-bbo/torchinductor_ubuntu/q3/cq3kxhk6ezre54h5ziwl6hsecpapb2olfiljuaorambagbt7lmwk.py":29:27)
#loc16 = loc("/mnt/disk1/khiemtt/universal-offline-bbo/torchinductor_ubuntu/q3/cq3kxhk6ezre54h5ziwl6hsecpapb2olfiljuaorambagbt7lmwk.py":30:18)
#loc17 = loc("/mnt/disk1/khiemtt/universal-offline-bbo/torchinductor_ubuntu/q3/cq3kxhk6ezre54h5ziwl6hsecpapb2olfiljuaorambagbt7lmwk.py":31:19)
#loc18 = loc("/mnt/disk1/khiemtt/universal-offline-bbo/torchinductor_ubuntu/q3/cq3kxhk6ezre54h5ziwl6hsecpapb2olfiljuaorambagbt7lmwk.py":32:28)
#loc19 = loc("/mnt/disk1/khiemtt/universal-offline-bbo/torchinductor_ubuntu/q3/cq3kxhk6ezre54h5ziwl6hsecpapb2olfiljuaorambagbt7lmwk.py":33:18)
#loc20 = loc("/mnt/disk1/khiemtt/universal-offline-bbo/torchinductor_ubuntu/q3/cq3kxhk6ezre54h5ziwl6hsecpapb2olfiljuaorambagbt7lmwk.py":34:18)
#loc21 = loc("/mnt/disk1/khiemtt/universal-offline-bbo/torchinductor_ubuntu/q3/cq3kxhk6ezre54h5ziwl6hsecpapb2olfiljuaorambagbt7lmwk.py":35:34)
#loc22 = loc("/mnt/disk1/khiemtt/universal-offline-bbo/torchinductor_ubuntu/q3/cq3kxhk6ezre54h5ziwl6hsecpapb2olfiljuaorambagbt7lmwk.py":35:29)
#loc23 = loc("/mnt/disk1/khiemtt/universal-offline-bbo/torchinductor_ubuntu/q3/cq3kxhk6ezre54h5ziwl6hsecpapb2olfiljuaorambagbt7lmwk.py":35:23)
#loc24 = loc("/mnt/disk1/khiemtt/universal-offline-bbo/torchinductor_ubuntu/q3/cq3kxhk6ezre54h5ziwl6hsecpapb2olfiljuaorambagbt7lmwk.py":36:27)
#loc25 = loc("/mnt/disk1/khiemtt/universal-offline-bbo/torchinductor_ubuntu/q3/cq3kxhk6ezre54h5ziwl6hsecpapb2olfiljuaorambagbt7lmwk.py":37:18)
#loc26 = loc("/mnt/disk1/khiemtt/universal-offline-bbo/torchinductor_ubuntu/q3/cq3kxhk6ezre54h5ziwl6hsecpapb2olfiljuaorambagbt7lmwk.py":38:20)
#loc27 = loc("/mnt/disk1/khiemtt/universal-offline-bbo/torchinductor_ubuntu/q3/cq3kxhk6ezre54h5ziwl6hsecpapb2olfiljuaorambagbt7lmwk.py":39:12)
#loc28 = loc("/mnt/disk1/khiemtt/universal-offline-bbo/torchinductor_ubuntu/q3/cq3kxhk6ezre54h5ziwl6hsecpapb2olfiljuaorambagbt7lmwk.py":40:20)
#loc29 = loc("/mnt/disk1/khiemtt/universal-offline-bbo/torchinductor_ubuntu/q3/cq3kxhk6ezre54h5ziwl6hsecpapb2olfiljuaorambagbt7lmwk.py":41:24)
#loc30 = loc("/mnt/disk1/khiemtt/universal-offline-bbo/torchinductor_ubuntu/q3/cq3kxhk6ezre54h5ziwl6hsecpapb2olfiljuaorambagbt7lmwk.py":42:12)
#loc31 = loc("/mnt/disk1/khiemtt/universal-offline-bbo/torchinductor_ubuntu/q3/cq3kxhk6ezre54h5ziwl6hsecpapb2olfiljuaorambagbt7lmwk.py":43:20)
#loc32 = loc("/mnt/disk1/khiemtt/universal-offline-bbo/torchinductor_ubuntu/q3/cq3kxhk6ezre54h5ziwl6hsecpapb2olfiljuaorambagbt7lmwk.py":44:12)
#loc33 = loc("/mnt/disk1/khiemtt/universal-offline-bbo/torchinductor_ubuntu/q3/cq3kxhk6ezre54h5ziwl6hsecpapb2olfiljuaorambagbt7lmwk.py":45:20)
#loc34 = loc("/mnt/disk1/khiemtt/universal-offline-bbo/torchinductor_ubuntu/q3/cq3kxhk6ezre54h5ziwl6hsecpapb2olfiljuaorambagbt7lmwk.py":46:21)
#loc35 = loc("/mnt/disk1/khiemtt/universal-offline-bbo/torchinductor_ubuntu/q3/cq3kxhk6ezre54h5ziwl6hsecpapb2olfiljuaorambagbt7lmwk.py":47:20)
#loc36 = loc("/mnt/disk1/khiemtt/universal-offline-bbo/torchinductor_ubuntu/q3/cq3kxhk6ezre54h5ziwl6hsecpapb2olfiljuaorambagbt7lmwk.py":48:29)
#loc37 = loc("/mnt/disk1/khiemtt/universal-offline-bbo/torchinductor_ubuntu/q3/cq3kxhk6ezre54h5ziwl6hsecpapb2olfiljuaorambagbt7lmwk.py":49:42)
#loc38 = loc("/mnt/disk1/khiemtt/universal-offline-bbo/torchinductor_ubuntu/q3/cq3kxhk6ezre54h5ziwl6hsecpapb2olfiljuaorambagbt7lmwk.py":50:33)
#loc39 = loc("/mnt/disk1/khiemtt/universal-offline-bbo/torchinductor_ubuntu/q3/cq3kxhk6ezre54h5ziwl6hsecpapb2olfiljuaorambagbt7lmwk.py":51:19)
#loc40 = loc("/mnt/disk1/khiemtt/universal-offline-bbo/torchinductor_ubuntu/q3/cq3kxhk6ezre54h5ziwl6hsecpapb2olfiljuaorambagbt7lmwk.py":52:34)
#loc41 = loc("/mnt/disk1/khiemtt/universal-offline-bbo/torchinductor_ubuntu/q3/cq3kxhk6ezre54h5ziwl6hsecpapb2olfiljuaorambagbt7lmwk.py":53:20)
#loc42 = loc("/mnt/disk1/khiemtt/universal-offline-bbo/torchinductor_ubuntu/q3/cq3kxhk6ezre54h5ziwl6hsecpapb2olfiljuaorambagbt7lmwk.py":54:20)
#loc43 = loc("/mnt/disk1/khiemtt/universal-offline-bbo/torchinductor_ubuntu/q3/cq3kxhk6ezre54h5ziwl6hsecpapb2olfiljuaorambagbt7lmwk.py":55:35)
#loc44 = loc("/mnt/disk1/khiemtt/universal-offline-bbo/torchinductor_ubuntu/q3/cq3kxhk6ezre54h5ziwl6hsecpapb2olfiljuaorambagbt7lmwk.py":56:27)
#loc45 = loc("/mnt/disk1/khiemtt/universal-offline-bbo/torchinductor_ubuntu/q3/cq3kxhk6ezre54h5ziwl6hsecpapb2olfiljuaorambagbt7lmwk.py":56:45)
#loc46 = loc("/mnt/disk1/khiemtt/universal-offline-bbo/torchinductor_ubuntu/q3/cq3kxhk6ezre54h5ziwl6hsecpapb2olfiljuaorambagbt7lmwk.py":56:37)
#loc47 = loc("/mnt/disk1/khiemtt/universal-offline-bbo/torchinductor_ubuntu/q3/cq3kxhk6ezre54h5ziwl6hsecpapb2olfiljuaorambagbt7lmwk.py":56:50)
#loc48 = loc("/mnt/disk1/khiemtt/universal-offline-bbo/torchinductor_ubuntu/q3/cq3kxhk6ezre54h5ziwl6hsecpapb2olfiljuaorambagbt7lmwk.py":57:38)
#loc49 = loc("/mnt/disk1/khiemtt/universal-offline-bbo/torchinductor_ubuntu/q3/cq3kxhk6ezre54h5ziwl6hsecpapb2olfiljuaorambagbt7lmwk.py":57:36)
#loc50 = loc("/mnt/disk1/khiemtt/universal-offline-bbo/torchinductor_ubuntu/q3/cq3kxhk6ezre54h5ziwl6hsecpapb2olfiljuaorambagbt7lmwk.py":57:31)
#loc51 = loc("/mnt/disk1/khiemtt/universal-offline-bbo/torchinductor_ubuntu/q3/cq3kxhk6ezre54h5ziwl6hsecpapb2olfiljuaorambagbt7lmwk.py":57:46)
#loc52 = loc("/mnt/disk1/khiemtt/universal-offline-bbo/torchinductor_ubuntu/q3/cq3kxhk6ezre54h5ziwl6hsecpapb2olfiljuaorambagbt7lmwk.py":58:21)
#loc53 = loc("/mnt/disk1/khiemtt/universal-offline-bbo/torchinductor_ubuntu/q3/cq3kxhk6ezre54h5ziwl6hsecpapb2olfiljuaorambagbt7lmwk.py":59:12)
#loc54 = loc("/mnt/disk1/khiemtt/universal-offline-bbo/torchinductor_ubuntu/q3/cq3kxhk6ezre54h5ziwl6hsecpapb2olfiljuaorambagbt7lmwk.py":60:20)
#loc55 = loc("/mnt/disk1/khiemtt/universal-offline-bbo/torchinductor_ubuntu/q3/cq3kxhk6ezre54h5ziwl6hsecpapb2olfiljuaorambagbt7lmwk.py":61:12)
#loc56 = loc("/mnt/disk1/khiemtt/universal-offline-bbo/torchinductor_ubuntu/q3/cq3kxhk6ezre54h5ziwl6hsecpapb2olfiljuaorambagbt7lmwk.py":62:20)
#loc57 = loc("/mnt/disk1/khiemtt/universal-offline-bbo/torchinductor_ubuntu/q3/cq3kxhk6ezre54h5ziwl6hsecpapb2olfiljuaorambagbt7lmwk.py":63:20)
#loc58 = loc("/mnt/disk1/khiemtt/universal-offline-bbo/torchinductor_ubuntu/q3/cq3kxhk6ezre54h5ziwl6hsecpapb2olfiljuaorambagbt7lmwk.py":64:25)
#loc59 = loc("/mnt/disk1/khiemtt/universal-offline-bbo/torchinductor_ubuntu/q3/cq3kxhk6ezre54h5ziwl6hsecpapb2olfiljuaorambagbt7lmwk.py":64:37)
#loc60 = loc("/mnt/disk1/khiemtt/universal-offline-bbo/torchinductor_ubuntu/q3/cq3kxhk6ezre54h5ziwl6hsecpapb2olfiljuaorambagbt7lmwk.py":64:4)
#loc62 = loc("/mnt/disk1/anaconda3/envs/pqhung/lib/python3.9/site-packages/torch/_inductor/runtime/triton_helpers.py":103:15)
#loc63 = loc("/mnt/disk1/anaconda3/envs/pqhung/lib/python3.9/site-packages/torch/_inductor/runtime/triton_helpers.py":104:19)
#loc64 = loc("/mnt/disk1/anaconda3/envs/pqhung/lib/python3.9/site-packages/torch/_inductor/runtime/triton_helpers.py":104:7)
#loc65 = loc("/mnt/disk1/anaconda3/envs/pqhung/lib/python3.9/site-packages/torch/_inductor/runtime/triton_helpers.py":105:21)
#loc66 = loc("/mnt/disk1/anaconda3/envs/pqhung/lib/python3.9/site-packages/torch/_inductor/runtime/triton_helpers.py":105:16)
#loc67 = loc(unknown)
#loc68 = loc("/mnt/disk1/anaconda3/envs/pqhung/lib/python3.9/site-packages/torch/_inductor/runtime/triton_helpers.py":106:29)
#loc69 = loc("/mnt/disk1/anaconda3/envs/pqhung/lib/python3.9/site-packages/torch/_inductor/runtime/triton_helpers.py":106:11)
#loc70 = loc("/mnt/disk1/anaconda3/envs/pqhung/lib/python3.9/site-packages/torch/_inductor/runtime/triton_helpers.py":106:4)
#loc72 = loc("/mnt/disk1/anaconda3/envs/pqhung/lib/python3.9/site-packages/torch/_inductor/runtime/triton_helpers.py":88:29)
#loc73 = loc("/mnt/disk1/anaconda3/envs/pqhung/lib/python3.9/site-packages/torch/_inductor/runtime/triton_helpers.py":88:11)
#loc74 = loc("/mnt/disk1/anaconda3/envs/pqhung/lib/python3.9/site-packages/torch/_inductor/runtime/triton_helpers.py":88:4)
#loc76 = loc("/mnt/disk1/anaconda3/envs/pqhung/lib/python3.9/site-packages/torch/_inductor/runtime/triton_helpers.py":66:30)
#loc77 = loc("/mnt/disk1/anaconda3/envs/pqhung/lib/python3.9/site-packages/torch/_inductor/runtime/triton_helpers.py":66:15)
#loc78 = loc("/mnt/disk1/anaconda3/envs/pqhung/lib/python3.9/site-packages/torch/_inductor/runtime/triton_helpers.py":66:11)
#loc79 = loc("/mnt/disk1/anaconda3/envs/pqhung/lib/python3.9/site-packages/torch/_inductor/runtime/triton_helpers.py":66:4)
#loc80 = loc("/mnt/disk1/anaconda3/envs/pqhung/lib/python3.9/site-packages/triton/language/standard.py":117:0)
#loc81 = loc("/mnt/disk1/anaconda3/envs/pqhung/lib/python3.9/site-packages/triton/language/standard.py":126:31)
#loc82 = loc("/mnt/disk1/anaconda3/envs/pqhung/lib/python3.9/site-packages/triton/language/standard.py":126:11)
#loc83 = loc("/mnt/disk1/anaconda3/envs/pqhung/lib/python3.9/site-packages/triton/language/standard.py":126:4)
