#loc = loc("/mnt/disk1/khiemtt/universal-offline-bbo/torchinductor_ubuntu/q3/cq3kxhk6ezre54h5ziwl6hsecpapb2olfiljuaorambagbt7lmwk.py":18:0)
module {
  tt.func public @triton_poi_fused__to_copy_add_mul_rsub_1(%arg0: !tt.ptr<f32> {tt.divisibility = 16 : i32} loc("/mnt/disk1/khiemtt/universal-offline-bbo/torchinductor_ubuntu/q3/cq3kxhk6ezre54h5ziwl6hsecpapb2olfiljuaorambagbt7lmwk.py":18:0), %arg1: !tt.ptr<i64> {tt.divisibility = 16 : i32} loc("/mnt/disk1/khiemtt/universal-offline-bbo/torchinductor_ubuntu/q3/cq3kxhk6ezre54h5ziwl6hsecpapb2olfiljuaorambagbt7lmwk.py":18:0), %arg2: !tt.ptr<f32> {tt.divisibility = 16 : i32} loc("/mnt/disk1/khiemtt/universal-offline-bbo/torchinductor_ubuntu/q3/cq3kxhk6ezre54h5ziwl6hsecpapb2olfiljuaorambagbt7lmwk.py":18:0), %arg3: i32 {tt.divisibility = 16 : i32} loc("/mnt/disk1/khiemtt/universal-offline-bbo/torchinductor_ubuntu/q3/cq3kxhk6ezre54h5ziwl6hsecpapb2olfiljuaorambagbt7lmwk.py":18:0)) attributes {noinline = false} {
    %cst = arith.constant dense<15> : tensor<256xi64> loc(#loc1)
    %cst_0 = arith.constant dense<32> : tensor<256xi64> loc(#loc1)
    %cst_1 = arith.constant dense<-3.40282347E+38> : tensor<256xf32> loc(#loc1)
    %cst_2 = arith.constant dense<1.000000e+00> : tensor<256xf32> loc(#loc1)
    %cst_3 = arith.constant dense<8.000000e+00> : tensor<256xf32> loc(#loc1)
    %cst_4 = arith.constant dense<0.360673755> : tensor<256xf32> loc(#loc1)
    %cst_5 = arith.constant dense<1.250000e-01> : tensor<256xf32> loc(#loc1)
    %cst_6 = arith.constant dense<8> : tensor<256xi64> loc(#loc1)
    %cst_7 = arith.constant dense<16> : tensor<256xi64> loc(#loc1)
    %cst_8 = arith.constant dense<0> : tensor<256xi64> loc(#loc1)
    %cst_9 = arith.constant dense<512> : tensor<256xi32> loc(#loc1)
    %cst_10 = arith.constant dense<64> : tensor<256xi32> loc(#loc1)
    %cst_11 = arith.constant dense<8> : tensor<256xi32> loc(#loc1)
    %c256_i32 = arith.constant 256 : i32 loc(#loc1)
    %0 = tt.get_program_id x : i32 loc(#loc2)
    %1 = arith.muli %0, %c256_i32 : i32 loc(#loc3)
    %2 = tt.make_range {end = 256 : i32, start = 0 : i32} : tensor<256xi32> loc(#loc4)
    %3 = tt.splat %1 : i32 -> tensor<256xi32> loc(#loc5)
    %4 = arith.addi %3, %2 : tensor<256xi32> loc(#loc5)
    %5 = arith.divsi %4, %cst_11 : tensor<256xi32> loc(#loc6)
    %6 = arith.remsi %5, %cst_10 : tensor<256xi32> loc(#loc7)
    %7 = arith.divsi %4, %cst_9 : tensor<256xi32> loc(#loc8)
    %8 = arith.remsi %4, %cst_11 : tensor<256xi32> loc(#loc9)
    %9 = tt.splat %arg1 : !tt.ptr<i64> -> tensor<256x!tt.ptr<i64>> loc(#loc10)
    %10 = tt.addptr %9, %6 : tensor<256x!tt.ptr<i64>>, tensor<256xi32> loc(#loc10)
    %11 = tt.load %10 evictionPolicy = evict_last : tensor<256x!tt.ptr<i64>> loc(#loc11)
    %12 = arith.subi %6, %7 : tensor<256xi32> loc(#loc12)
    %13 = arith.extsi %12 : tensor<256xi32> to tensor<256xi64> loc(#loc13)
    %14 = arith.cmpi sgt, %13, %cst_8 : tensor<256xi64> loc(#loc13)
    %15 = arith.extui %14 : tensor<256xi1> to tensor<256xi64> loc(#loc14)
    %16 = arith.muli %15, %cst_7 : tensor<256xi64> loc(#loc15)
    %17 = math.absi %12 : tensor<256xi32> loc(#loc16)
    %18 = arith.extsi %17 : tensor<256xi32> to tensor<256xi64> loc(#loc17)
    %19 = arith.cmpi slt, %18, %cst_6 : tensor<256xi64> loc(#loc17)
    %20 = arith.sitofp %17 : tensor<256xi32> to tensor<256xf32> loc(#loc18)
    %21 = arith.mulf %20, %cst_5 : tensor<256xf32> loc(#loc19)
    %22 = math.log %21 : tensor<256xf32> loc(#loc20)
    %23 = arith.mulf %22, %cst_4 : tensor<256xf32> loc(#loc21)
    %24 = arith.mulf %23, %cst_3 : tensor<256xf32> loc(#loc22)
    %25 = arith.fptosi %24 : tensor<256xf32> to tensor<256xi64> loc(#loc23)
    %26 = arith.addi %25, %cst_6 : tensor<256xi64> loc(#loc24)
    %27 = arith.cmpi slt, %26, %cst : tensor<256xi64> loc(#loc48)
    %28 = arith.select %27, %26, %cst : tensor<256xi1>, tensor<256xi64> loc(#loc49)
    %29 = arith.select %19, %18, %28 : tensor<256xi1>, tensor<256xi64> loc(#loc28)
    %30 = arith.addi %16, %29 : tensor<256xi64> loc(#loc29)
    %31 = arith.addi %30, %cst_0 : tensor<256xi64> loc(#loc30)
    %32 = arith.cmpi slt, %30, %cst_8 : tensor<256xi64> loc(#loc31)
    %33 = arith.select %32, %31, %30 : tensor<256xi1>, tensor<256xi64> loc(#loc32)
    %34 = arith.cmpi sge, %33, %cst_8 : tensor<256xi64> loc(#loc33)
    %35 = arith.cmpi slt, %33, %cst_0 : tensor<256xi64> loc(#loc34)
    %36 = arith.andi %34, %35 : tensor<256xi1> loc(#loc35)
    tt.assert %36, "index out of bounds: 0 <= tmp27 < 32" : tensor<256xi1> loc(#loc36)
    %37 = arith.muli %33, %cst_6 : tensor<256xi64> loc(#loc37)
    %38 = arith.extsi %8 : tensor<256xi32> to tensor<256xi64> loc(#loc38)
    %39 = arith.addi %38, %37 : tensor<256xi64> loc(#loc38)
    %40 = tt.splat %arg0 : !tt.ptr<f32> -> tensor<256x!tt.ptr<f32>> loc(#loc39)
    %41 = tt.addptr %40, %39 : tensor<256x!tt.ptr<f32>>, tensor<256xi64> loc(#loc39)
    %42 = tt.load %41 : tensor<256x!tt.ptr<f32>> loc(#loc40)
    %43 = arith.sitofp %11 : tensor<256xi64> to tensor<256xf32> loc(#loc41)
    %44 = arith.subf %cst_2, %43 : tensor<256xf32> loc(#loc42)
    %45 = arith.mulf %44, %cst_1 : tensor<256xf32> loc(#loc43)
    %46 = arith.addf %42, %45 : tensor<256xf32> loc(#loc44)
    %47 = tt.splat %arg2 : !tt.ptr<f32> -> tensor<256x!tt.ptr<f32>> loc(#loc45)
    %48 = tt.addptr %47, %4 : tensor<256x!tt.ptr<f32>>, tensor<256xi32> loc(#loc45)
    tt.store %48, %46 : tensor<256x!tt.ptr<f32>> loc(#loc46)
    tt.return loc(#loc47)
  } loc(#loc)
} loc(#loc)
#loc1 = loc(unknown)
#loc2 = loc("/mnt/disk1/khiemtt/universal-offline-bbo/torchinductor_ubuntu/q3/cq3kxhk6ezre54h5ziwl6hsecpapb2olfiljuaorambagbt7lmwk.py":20:28)
#loc3 = loc("/mnt/disk1/khiemtt/universal-offline-bbo/torchinductor_ubuntu/q3/cq3kxhk6ezre54h5ziwl6hsecpapb2olfiljuaorambagbt7lmwk.py":20:33)
#loc4 = loc("/mnt/disk1/khiemtt/universal-offline-bbo/torchinductor_ubuntu/q3/cq3kxhk6ezre54h5ziwl6hsecpapb2olfiljuaorambagbt7lmwk.py":21:36)
#loc5 = loc("/mnt/disk1/khiemtt/universal-offline-bbo/torchinductor_ubuntu/q3/cq3kxhk6ezre54h5ziwl6hsecpapb2olfiljuaorambagbt7lmwk.py":21:23)
#loc6 = loc("/mnt/disk1/khiemtt/universal-offline-bbo/torchinductor_ubuntu/q3/cq3kxhk6ezre54h5ziwl6hsecpapb2olfiljuaorambagbt7lmwk.py":23:21)
#loc7 = loc("/mnt/disk1/khiemtt/universal-offline-bbo/torchinductor_ubuntu/q3/cq3kxhk6ezre54h5ziwl6hsecpapb2olfiljuaorambagbt7lmwk.py":23:26)
#loc8 = loc("/mnt/disk1/khiemtt/universal-offline-bbo/torchinductor_ubuntu/q3/cq3kxhk6ezre54h5ziwl6hsecpapb2olfiljuaorambagbt7lmwk.py":24:19)
#loc9 = loc("/mnt/disk1/khiemtt/universal-offline-bbo/torchinductor_ubuntu/q3/cq3kxhk6ezre54h5ziwl6hsecpapb2olfiljuaorambagbt7lmwk.py":25:19)
#loc10 = loc("/mnt/disk1/khiemtt/universal-offline-bbo/torchinductor_ubuntu/q3/cq3kxhk6ezre54h5ziwl6hsecpapb2olfiljuaorambagbt7lmwk.py":27:31)
#loc11 = loc("/mnt/disk1/khiemtt/universal-offline-bbo/torchinductor_ubuntu/q3/cq3kxhk6ezre54h5ziwl6hsecpapb2olfiljuaorambagbt7lmwk.py":27:36)
#loc12 = loc("/mnt/disk1/khiemtt/universal-offline-bbo/torchinductor_ubuntu/q3/cq3kxhk6ezre54h5ziwl6hsecpapb2olfiljuaorambagbt7lmwk.py":28:17)
#loc13 = loc("/mnt/disk1/khiemtt/universal-offline-bbo/torchinductor_ubuntu/q3/cq3kxhk6ezre54h5ziwl6hsecpapb2olfiljuaorambagbt7lmwk.py":30:18)
#loc14 = loc("/mnt/disk1/khiemtt/universal-offline-bbo/torchinductor_ubuntu/q3/cq3kxhk6ezre54h5ziwl6hsecpapb2olfiljuaorambagbt7lmwk.py":31:19)
#loc15 = loc("/mnt/disk1/khiemtt/universal-offline-bbo/torchinductor_ubuntu/q3/cq3kxhk6ezre54h5ziwl6hsecpapb2olfiljuaorambagbt7lmwk.py":33:18)
#loc16 = loc("/mnt/disk1/khiemtt/universal-offline-bbo/torchinductor_ubuntu/q3/cq3kxhk6ezre54h5ziwl6hsecpapb2olfiljuaorambagbt7lmwk.py":35:23)
#loc17 = loc("/mnt/disk1/khiemtt/universal-offline-bbo/torchinductor_ubuntu/q3/cq3kxhk6ezre54h5ziwl6hsecpapb2olfiljuaorambagbt7lmwk.py":37:18)
#loc18 = loc("/mnt/disk1/khiemtt/universal-offline-bbo/torchinductor_ubuntu/q3/cq3kxhk6ezre54h5ziwl6hsecpapb2olfiljuaorambagbt7lmwk.py":38:20)
#loc19 = loc("/mnt/disk1/khiemtt/universal-offline-bbo/torchinductor_ubuntu/q3/cq3kxhk6ezre54h5ziwl6hsecpapb2olfiljuaorambagbt7lmwk.py":40:20)
#loc20 = loc("/mnt/disk1/khiemtt/universal-offline-bbo/torchinductor_ubuntu/q3/cq3kxhk6ezre54h5ziwl6hsecpapb2olfiljuaorambagbt7lmwk.py":41:24)
#loc21 = loc("/mnt/disk1/khiemtt/universal-offline-bbo/torchinductor_ubuntu/q3/cq3kxhk6ezre54h5ziwl6hsecpapb2olfiljuaorambagbt7lmwk.py":43:20)
#loc22 = loc("/mnt/disk1/khiemtt/universal-offline-bbo/torchinductor_ubuntu/q3/cq3kxhk6ezre54h5ziwl6hsecpapb2olfiljuaorambagbt7lmwk.py":45:20)
#loc23 = loc("/mnt/disk1/khiemtt/universal-offline-bbo/torchinductor_ubuntu/q3/cq3kxhk6ezre54h5ziwl6hsecpapb2olfiljuaorambagbt7lmwk.py":46:21)
#loc24 = loc("/mnt/disk1/khiemtt/universal-offline-bbo/torchinductor_ubuntu/q3/cq3kxhk6ezre54h5ziwl6hsecpapb2olfiljuaorambagbt7lmwk.py":47:20)
#loc25 = loc("/mnt/disk1/anaconda3/envs/pqhung/lib/python3.9/site-packages/torch/_inductor/runtime/triton_helpers.py":103:15)
#loc26 = loc("/mnt/disk1/khiemtt/universal-offline-bbo/torchinductor_ubuntu/q3/cq3kxhk6ezre54h5ziwl6hsecpapb2olfiljuaorambagbt7lmwk.py":49:42)
#loc27 = loc("/mnt/disk1/anaconda3/envs/pqhung/lib/python3.9/site-packages/torch/_inductor/runtime/triton_helpers.py":106:29)
#loc28 = loc("/mnt/disk1/khiemtt/universal-offline-bbo/torchinductor_ubuntu/q3/cq3kxhk6ezre54h5ziwl6hsecpapb2olfiljuaorambagbt7lmwk.py":50:33)
#loc29 = loc("/mnt/disk1/khiemtt/universal-offline-bbo/torchinductor_ubuntu/q3/cq3kxhk6ezre54h5ziwl6hsecpapb2olfiljuaorambagbt7lmwk.py":51:19)
#loc30 = loc("/mnt/disk1/khiemtt/universal-offline-bbo/torchinductor_ubuntu/q3/cq3kxhk6ezre54h5ziwl6hsecpapb2olfiljuaorambagbt7lmwk.py":53:20)
#loc31 = loc("/mnt/disk1/khiemtt/universal-offline-bbo/torchinductor_ubuntu/q3/cq3kxhk6ezre54h5ziwl6hsecpapb2olfiljuaorambagbt7lmwk.py":54:20)
#loc32 = loc("/mnt/disk1/khiemtt/universal-offline-bbo/torchinductor_ubuntu/q3/cq3kxhk6ezre54h5ziwl6hsecpapb2olfiljuaorambagbt7lmwk.py":55:35)
#loc33 = loc("/mnt/disk1/khiemtt/universal-offline-bbo/torchinductor_ubuntu/q3/cq3kxhk6ezre54h5ziwl6hsecpapb2olfiljuaorambagbt7lmwk.py":56:27)
#loc34 = loc("/mnt/disk1/khiemtt/universal-offline-bbo/torchinductor_ubuntu/q3/cq3kxhk6ezre54h5ziwl6hsecpapb2olfiljuaorambagbt7lmwk.py":56:45)
#loc35 = loc("/mnt/disk1/khiemtt/universal-offline-bbo/torchinductor_ubuntu/q3/cq3kxhk6ezre54h5ziwl6hsecpapb2olfiljuaorambagbt7lmwk.py":56:37)
#loc36 = loc("/mnt/disk1/khiemtt/universal-offline-bbo/torchinductor_ubuntu/q3/cq3kxhk6ezre54h5ziwl6hsecpapb2olfiljuaorambagbt7lmwk.py":56:50)
#loc37 = loc("/mnt/disk1/khiemtt/universal-offline-bbo/torchinductor_ubuntu/q3/cq3kxhk6ezre54h5ziwl6hsecpapb2olfiljuaorambagbt7lmwk.py":57:38)
#loc38 = loc("/mnt/disk1/khiemtt/universal-offline-bbo/torchinductor_ubuntu/q3/cq3kxhk6ezre54h5ziwl6hsecpapb2olfiljuaorambagbt7lmwk.py":57:36)
#loc39 = loc("/mnt/disk1/khiemtt/universal-offline-bbo/torchinductor_ubuntu/q3/cq3kxhk6ezre54h5ziwl6hsecpapb2olfiljuaorambagbt7lmwk.py":57:31)
#loc40 = loc("/mnt/disk1/khiemtt/universal-offline-bbo/torchinductor_ubuntu/q3/cq3kxhk6ezre54h5ziwl6hsecpapb2olfiljuaorambagbt7lmwk.py":57:46)
#loc41 = loc("/mnt/disk1/khiemtt/universal-offline-bbo/torchinductor_ubuntu/q3/cq3kxhk6ezre54h5ziwl6hsecpapb2olfiljuaorambagbt7lmwk.py":58:21)
#loc42 = loc("/mnt/disk1/khiemtt/universal-offline-bbo/torchinductor_ubuntu/q3/cq3kxhk6ezre54h5ziwl6hsecpapb2olfiljuaorambagbt7lmwk.py":60:20)
#loc43 = loc("/mnt/disk1/khiemtt/universal-offline-bbo/torchinductor_ubuntu/q3/cq3kxhk6ezre54h5ziwl6hsecpapb2olfiljuaorambagbt7lmwk.py":62:20)
#loc44 = loc("/mnt/disk1/khiemtt/universal-offline-bbo/torchinductor_ubuntu/q3/cq3kxhk6ezre54h5ziwl6hsecpapb2olfiljuaorambagbt7lmwk.py":63:20)
#loc45 = loc("/mnt/disk1/khiemtt/universal-offline-bbo/torchinductor_ubuntu/q3/cq3kxhk6ezre54h5ziwl6hsecpapb2olfiljuaorambagbt7lmwk.py":64:25)
#loc46 = loc("/mnt/disk1/khiemtt/universal-offline-bbo/torchinductor_ubuntu/q3/cq3kxhk6ezre54h5ziwl6hsecpapb2olfiljuaorambagbt7lmwk.py":64:37)
#loc47 = loc("/mnt/disk1/khiemtt/universal-offline-bbo/torchinductor_ubuntu/q3/cq3kxhk6ezre54h5ziwl6hsecpapb2olfiljuaorambagbt7lmwk.py":64:4)
#loc48 = loc(callsite(#loc25 at #loc26))
#loc49 = loc(callsite(#loc27 at #loc26))
