#loc = loc("/mnt/disk1/khiemtt/universal-offline-bbo/torchinductor_ubuntu/wd/cwdhcmrlnsbjtobzmwwysl4wtplzsnpz5uqtgductf72pfm5ppxz.py":18:0)
#loc1 = loc(unknown)
#loc21 = loc("/mnt/disk1/khiemtt/universal-offline-bbo/torchinductor_ubuntu/wd/cwdhcmrlnsbjtobzmwwysl4wtplzsnpz5uqtgductf72pfm5ppxz.py":45:58)
#loc35 = loc(callsite(#loc1 at #loc21))
module {
  tt.func public @triton_per_fused_add_mean_mul_pow_rsqrt_6(%arg0: !tt.ptr<f32> {tt.divisibility = 16 : i32} loc("/mnt/disk1/khiemtt/universal-offline-bbo/torchinductor_ubuntu/wd/cwdhcmrlnsbjtobzmwwysl4wtplzsnpz5uqtgductf72pfm5ppxz.py":18:0), %arg1: !tt.ptr<f32> {tt.divisibility = 16 : i32} loc("/mnt/disk1/khiemtt/universal-offline-bbo/torchinductor_ubuntu/wd/cwdhcmrlnsbjtobzmwwysl4wtplzsnpz5uqtgductf72pfm5ppxz.py":18:0), %arg2: !tt.ptr<f32> {tt.divisibility = 16 : i32} loc("/mnt/disk1/khiemtt/universal-offline-bbo/torchinductor_ubuntu/wd/cwdhcmrlnsbjtobzmwwysl4wtplzsnpz5uqtgductf72pfm5ppxz.py":18:0), %arg3: !tt.ptr<f32> {tt.divisibility = 16 : i32} loc("/mnt/disk1/khiemtt/universal-offline-bbo/torchinductor_ubuntu/wd/cwdhcmrlnsbjtobzmwwysl4wtplzsnpz5uqtgductf72pfm5ppxz.py":18:0), %arg4: !tt.ptr<f32> {tt.divisibility = 16 : i32} loc("/mnt/disk1/khiemtt/universal-offline-bbo/torchinductor_ubuntu/wd/cwdhcmrlnsbjtobzmwwysl4wtplzsnpz5uqtgductf72pfm5ppxz.py":18:0), %arg5: !tt.ptr<f32> {tt.divisibility = 16 : i32} loc("/mnt/disk1/khiemtt/universal-offline-bbo/torchinductor_ubuntu/wd/cwdhcmrlnsbjtobzmwwysl4wtplzsnpz5uqtgductf72pfm5ppxz.py":18:0), %arg6: i32 {tt.divisibility = 16 : i32} loc("/mnt/disk1/khiemtt/universal-offline-bbo/torchinductor_ubuntu/wd/cwdhcmrlnsbjtobzmwwysl4wtplzsnpz5uqtgductf72pfm5ppxz.py":18:0), %arg7: i32 {tt.divisibility = 16 : i32} loc("/mnt/disk1/khiemtt/universal-offline-bbo/torchinductor_ubuntu/wd/cwdhcmrlnsbjtobzmwwysl4wtplzsnpz5uqtgductf72pfm5ppxz.py":18:0)) attributes {noinline = false} {
    %cst = arith.constant 9.99999997E-7 : f32 loc(#loc1)
    %cst_0 = arith.constant 5.120000e+02 : f32 loc(#loc1)
    %cst_1 = arith.constant 0.000000e+00 : f32 loc(#loc1)
    %c512_i32 = arith.constant 512 : i32 loc(#loc1)
    %0 = tt.get_program_id x : i32 loc(#loc2)
    %1 = tt.make_range {end = 512 : i32, start = 0 : i32} : tensor<512xi32> loc(#loc3)
    %2 = arith.muli %0, %c512_i32 : i32 loc(#loc4)
    %3 = tt.splat %2 : i32 -> tensor<512xi32> loc(#loc33)
    %4 = arith.addi %1, %3 : tensor<512xi32> loc(#loc5)
    %5 = tt.splat %arg0 : !tt.ptr<f32> -> tensor<512x!tt.ptr<f32>> loc(#loc6)
    %6 = tt.addptr %5, %4 : tensor<512x!tt.ptr<f32>>, tensor<512xi32> loc(#loc6)
    %7 = tt.load %6 : tensor<512x!tt.ptr<f32>> loc(#loc7)
    %8 = tt.splat %arg1 : !tt.ptr<f32> -> tensor<512x!tt.ptr<f32>> loc(#loc8)
    %9 = tt.addptr %8, %4 : tensor<512x!tt.ptr<f32>>, tensor<512xi32> loc(#loc8)
    %10 = tt.load %9 : tensor<512x!tt.ptr<f32>> loc(#loc9)
    %11 = tt.splat %arg2 : !tt.ptr<f32> -> tensor<512x!tt.ptr<f32>> loc(#loc10)
    %12 = tt.addptr %11, %4 : tensor<512x!tt.ptr<f32>>, tensor<512xi32> loc(#loc10)
    %13 = tt.load %12 : tensor<512x!tt.ptr<f32>> loc(#loc11)
    %14 = tt.splat %arg3 : !tt.ptr<f32> -> tensor<512x!tt.ptr<f32>> loc(#loc12)
    %15 = tt.addptr %14, %4 : tensor<512x!tt.ptr<f32>>, tensor<512xi32> loc(#loc12)
    %16 = tt.load %15 : tensor<512x!tt.ptr<f32>> loc(#loc13)
    %17 = tt.splat %arg4 : !tt.ptr<f32> -> tensor<512x!tt.ptr<f32>> loc(#loc14)
    %18 = tt.addptr %17, %1 : tensor<512x!tt.ptr<f32>>, tensor<512xi32> loc(#loc14)
    %19 = tt.load %18 evictionPolicy = evict_last : tensor<512x!tt.ptr<f32>> loc(#loc15)
    %20 = arith.addf %7, %10 : tensor<512xf32> loc(#loc16)
    %21 = arith.addf %20, %13 : tensor<512xf32> loc(#loc17)
    %22 = arith.addf %21, %16 : tensor<512xf32> loc(#loc18)
    %23 = arith.mulf %22, %22 : tensor<512xf32> loc(#loc19)
    %24 = "tt.reduce"(%23) <{axis = 0 : i32}> ({
    ^bb0(%arg8: f32 loc(callsite(#loc1 at #loc21)), %arg9: f32 loc(callsite(#loc1 at #loc21))):
      %34 = arith.addf %arg8, %arg9 : f32 loc(#loc38)
      tt.reduce.return %34 : f32 loc(#loc34)
    }) : (tensor<512xf32>) -> f32 loc(#loc34)
    %25 = arith.addf %24, %cst_1 : f32 loc(#loc36)
    %26 = arith.divf %25, %cst_0 : f32 loc(#loc25)
    %27 = arith.addf %26, %cst : f32 loc(#loc26)
    %28 = tt.extern_elementwise %27 {libname = "", libpath = "", pure = true, symbol = "__nv_rsqrtf"} : (f32) -> f32 loc(#loc27)
    %29 = tt.splat %28 : f32 -> tensor<512xf32> loc(#loc37)
    %30 = arith.mulf %22, %29 : tensor<512xf32> loc(#loc28)
    %31 = arith.mulf %19, %30 : tensor<512xf32> loc(#loc29)
    %32 = tt.splat %arg5 : !tt.ptr<f32> -> tensor<512x!tt.ptr<f32>> loc(#loc30)
    %33 = tt.addptr %32, %4 : tensor<512x!tt.ptr<f32>>, tensor<512xi32> loc(#loc30)
    tt.store %33, %31 : tensor<512x!tt.ptr<f32>> loc(#loc31)
    tt.return loc(#loc32)
  } loc(#loc)
} loc(#loc)
#loc2 = loc("/mnt/disk1/khiemtt/universal-offline-bbo/torchinductor_ubuntu/wd/cwdhcmrlnsbjtobzmwwysl4wtplzsnpz5uqtgductf72pfm5ppxz.py":25:28)
#loc3 = loc("/mnt/disk1/khiemtt/universal-offline-bbo/torchinductor_ubuntu/wd/cwdhcmrlnsbjtobzmwwysl4wtplzsnpz5uqtgductf72pfm5ppxz.py":28:28)
#loc4 = loc("/mnt/disk1/khiemtt/universal-offline-bbo/torchinductor_ubuntu/wd/cwdhcmrlnsbjtobzmwwysl4wtplzsnpz5uqtgductf72pfm5ppxz.py":35:41)
#loc5 = loc("/mnt/disk1/khiemtt/universal-offline-bbo/torchinductor_ubuntu/wd/cwdhcmrlnsbjtobzmwwysl4wtplzsnpz5uqtgductf72pfm5ppxz.py":35:37)
#loc6 = loc("/mnt/disk1/khiemtt/universal-offline-bbo/torchinductor_ubuntu/wd/cwdhcmrlnsbjtobzmwwysl4wtplzsnpz5uqtgductf72pfm5ppxz.py":35:30)
#loc7 = loc("/mnt/disk1/khiemtt/universal-offline-bbo/torchinductor_ubuntu/wd/cwdhcmrlnsbjtobzmwwysl4wtplzsnpz5uqtgductf72pfm5ppxz.py":35:46)
#loc8 = loc("/mnt/disk1/khiemtt/universal-offline-bbo/torchinductor_ubuntu/wd/cwdhcmrlnsbjtobzmwwysl4wtplzsnpz5uqtgductf72pfm5ppxz.py":36:30)
#loc9 = loc("/mnt/disk1/khiemtt/universal-offline-bbo/torchinductor_ubuntu/wd/cwdhcmrlnsbjtobzmwwysl4wtplzsnpz5uqtgductf72pfm5ppxz.py":36:46)
#loc10 = loc("/mnt/disk1/khiemtt/universal-offline-bbo/torchinductor_ubuntu/wd/cwdhcmrlnsbjtobzmwwysl4wtplzsnpz5uqtgductf72pfm5ppxz.py":37:30)
#loc11 = loc("/mnt/disk1/khiemtt/universal-offline-bbo/torchinductor_ubuntu/wd/cwdhcmrlnsbjtobzmwwysl4wtplzsnpz5uqtgductf72pfm5ppxz.py":37:46)
#loc12 = loc("/mnt/disk1/khiemtt/universal-offline-bbo/torchinductor_ubuntu/wd/cwdhcmrlnsbjtobzmwwysl4wtplzsnpz5uqtgductf72pfm5ppxz.py":38:30)
#loc13 = loc("/mnt/disk1/khiemtt/universal-offline-bbo/torchinductor_ubuntu/wd/cwdhcmrlnsbjtobzmwwysl4wtplzsnpz5uqtgductf72pfm5ppxz.py":38:46)
#loc14 = loc("/mnt/disk1/khiemtt/universal-offline-bbo/torchinductor_ubuntu/wd/cwdhcmrlnsbjtobzmwwysl4wtplzsnpz5uqtgductf72pfm5ppxz.py":39:31)
#loc15 = loc("/mnt/disk1/khiemtt/universal-offline-bbo/torchinductor_ubuntu/wd/cwdhcmrlnsbjtobzmwwysl4wtplzsnpz5uqtgductf72pfm5ppxz.py":39:38)
#loc16 = loc("/mnt/disk1/khiemtt/universal-offline-bbo/torchinductor_ubuntu/wd/cwdhcmrlnsbjtobzmwwysl4wtplzsnpz5uqtgductf72pfm5ppxz.py":40:18)
#loc17 = loc("/mnt/disk1/khiemtt/universal-offline-bbo/torchinductor_ubuntu/wd/cwdhcmrlnsbjtobzmwwysl4wtplzsnpz5uqtgductf72pfm5ppxz.py":41:18)
#loc18 = loc("/mnt/disk1/khiemtt/universal-offline-bbo/torchinductor_ubuntu/wd/cwdhcmrlnsbjtobzmwwysl4wtplzsnpz5uqtgductf72pfm5ppxz.py":42:18)
#loc19 = loc("/mnt/disk1/khiemtt/universal-offline-bbo/torchinductor_ubuntu/wd/cwdhcmrlnsbjtobzmwwysl4wtplzsnpz5uqtgductf72pfm5ppxz.py":43:18)
#loc20 = loc("/mnt/disk1/anaconda3/envs/pqhung/lib/python3.9/site-packages/triton/language/standard.py":290:36)
#loc22 = loc("/mnt/disk1/anaconda3/envs/pqhung/lib/python3.9/site-packages/triton/language/standard.py":260:15)
#loc23 = loc("/mnt/disk1/anaconda3/envs/pqhung/lib/python3.9/site-packages/torch/_inductor/runtime/triton_helpers.py":66:15)
#loc24 = loc("/mnt/disk1/khiemtt/universal-offline-bbo/torchinductor_ubuntu/wd/cwdhcmrlnsbjtobzmwwysl4wtplzsnpz5uqtgductf72pfm5ppxz.py":45:45)
#loc25 = loc("/mnt/disk1/khiemtt/universal-offline-bbo/torchinductor_ubuntu/wd/cwdhcmrlnsbjtobzmwwysl4wtplzsnpz5uqtgductf72pfm5ppxz.py":47:21)
#loc26 = loc("/mnt/disk1/khiemtt/universal-offline-bbo/torchinductor_ubuntu/wd/cwdhcmrlnsbjtobzmwwysl4wtplzsnpz5uqtgductf72pfm5ppxz.py":49:20)
#loc27 = loc("/mnt/disk1/khiemtt/universal-offline-bbo/torchinductor_ubuntu/wd/cwdhcmrlnsbjtobzmwwysl4wtplzsnpz5uqtgductf72pfm5ppxz.py":50:28)
#loc28 = loc("/mnt/disk1/khiemtt/universal-offline-bbo/torchinductor_ubuntu/wd/cwdhcmrlnsbjtobzmwwysl4wtplzsnpz5uqtgductf72pfm5ppxz.py":51:19)
#loc29 = loc("/mnt/disk1/khiemtt/universal-offline-bbo/torchinductor_ubuntu/wd/cwdhcmrlnsbjtobzmwwysl4wtplzsnpz5uqtgductf72pfm5ppxz.py":52:20)
#loc30 = loc("/mnt/disk1/khiemtt/universal-offline-bbo/torchinductor_ubuntu/wd/cwdhcmrlnsbjtobzmwwysl4wtplzsnpz5uqtgductf72pfm5ppxz.py":53:25)
#loc31 = loc("/mnt/disk1/khiemtt/universal-offline-bbo/torchinductor_ubuntu/wd/cwdhcmrlnsbjtobzmwwysl4wtplzsnpz5uqtgductf72pfm5ppxz.py":53:48)
#loc32 = loc("/mnt/disk1/khiemtt/universal-offline-bbo/torchinductor_ubuntu/wd/cwdhcmrlnsbjtobzmwwysl4wtplzsnpz5uqtgductf72pfm5ppxz.py":53:4)
#loc33 = loc(fused[#loc5, #loc4])
#loc34 = loc(callsite(#loc20 at #loc21))
#loc36 = loc(callsite(#loc23 at #loc24))
#loc37 = loc(fused[#loc28, #loc27])
#loc38 = loc(callsite(#loc22 at #loc34))
